checkpoint.pth (torch, 35823 bytes, 24 tensors)

weight f4 [32, 4]
0.22090732 0.0034720385 2.4127655 0.18247458 -0.058085598 -0.030687066 3.2822156 -0.04860922
-0.1828045 0.109372385 -0.32926193 0.06301889 0.07545048 -0.13473378 -1.2275326 0.70326245
0.10957557 -0.2567774 3.2145307 0.073297635 -0.010654978 -0.032138526 -4.1500874 -0.34679255
-0.008639207 0.024116147 3.957883 0.37565583 -0.16124348 0.14188914 -1.2006388 0.17611074
-0.0054946314 -0.0070371507 1.9572749 -0.1047239 0.15982002 -0.5601969 1.7515068 -0.2874265
0.04006087 -0.12308055 -3.0919614 -0.31446752 0.24616875 -0.63741326 0.455466 -0.36412123
0.5933528 -0.22432388 -1.5479351 0.451574 -0.025349084 0.008699491 1.326415 -0.7994672
-0.13929571 0.012525314 0.023353485 -0.09317005 0.87216467 0.28120652 -0.35227114 0.116720274
-0.24071126 -0.06266343 -2.3690462 0.31543058 -0.25888973 0.16191877 -2.448324 0.23433083
-0.08743532 -0.128774 -2.6824176 -0.70688 0.5738209 0.0012675227 -0.03539308 0.0052045723
-0.085923724 -0.009692052 -1.7622918 -0.004436445 0.40557656 -0.040938802 0.042300653 -0.03248681
-0.0042001475 -0.0358412 3.0955822 0.3422771 0.043768518 0.11008865 0.42454138 0.029490234
0.718972 -0.28666675 -0.1237076 -0.24617968 -0.68345886 -0.08224673 0.09009002 0.14359602
0.1562882 0.035130028 0.06983188 0.032131173 -0.28895468 0.26462713 1.954917 0.63428324
0.086160295 -0.18124452 -2.1283162 1.1543868 -0.54057854 -0.02374813 -0.13887516 0.008215839
-0.100581914 0.09396847 -0.74056846 0.09237879 -0.031438928 0.03851818 -0.41202968 0.023357581
00000000: 8735 623e 248b 633b c06a 1a40 9eda 3a3e
00000010: 2aeb 6dbd 7163 fbbc d20f 5240 761a 47bd
00000020: 1a31 3bbe a1fe df3d 0595 a8be 0c10 813d
00000030: c885 9a3d a7f7 09be ca1f 9dbf 0209 343f
00000040: 2869 e03d 5478 83be dfba 4d40 121d 963d
00000050: 3892 2ebc b0a3 03bd 84cd 84c0 cb8e b1be
00000060: 768b 0dbc 3a8f c53c f44d 7d40 f655 c03e
00000070: 031d 25be 634b 113e 88ae 99bf 6056 343e
00000080: 4f0c b4bb e697 e6bb fc87 fa3f 7c79 d6bd
00000090: dca7 233e 1069 0fbf 6031 e03f 9129 93be
000000a0: de16 243d a811 fcbd b2e2 45c0 e301 a1be
000000b0: a913 7c3e 842d 23bf d732 e93e 196e babe
000000c0: f8e5 173f 29b5 65be bd22 c6bf b534 e73e
000000d0: e2a8 cfbc 4f88 0e3c f7c7 a93f e2a9 4cbf
000000e0: 89a3 0ebe fa36 4d3c cf4f bf3c f0cf bebd
000000f0: 2f46 5f3f 4dfa 8f3e e25c b4be 0a0b ef3d
00000100: 037d 76be af55 80bd 749e 17c0 1e80 a13e
00000110: 328d 84be 09ce 253e 57b1 1cc0 6cf4 6f3e
00000120: 4a11 b3bd 55dd 03be bbac 2bc0 16f6 34bf
00000130: ede5 123f 0123 a63a 56f8 10bd 1e8b aa3b
00000140: c7f8 afbd 6acb 1ebc c792 e1bf 995f 91bb
00000150: bba7 cf3e 72af 27bd 7343 2d3d e410 05bd
00000160: 64a1 89bb 39ce 12bd 051e 4640 f23e af3e
00000170: 9e46 333d 2876 e13d 7d5d d93e 8195 f13c
00000180: 8d0e 383f fcc5 92be 695a fdbd 8716 7cbe
00000190: 29f7 2ebf f970 a8bd 1e81 b83d d60a 133e
000001a0: 040a 203e 81e4 0f3d 0404 8f3d fa9b 033d
000001b0: def1 93be 357d 873e b83a fa3f 6360 223f
000001c0: cf74 b03d 2a98 39be 5536 08c0 f2c2 933f
000001d0: 5b63 0abf 708b c2bc 4a35 0ebe ba9b 063c
000001e0: e4fd cdbd 8b72 c03d e595 3dbf 1731 bd3d
000001f0: 1bc6 00bd 3dc5 1d3d 8ef5 d2be 6658 bf3c

bias f4 [32]
-0.702939 -0.74738276 -0.550381 -0.57316744 -0.40295282 -0.7288698 -0.7550582 -0.6502637
-0.46161819 -0.9128519 0.93973917 -0.58204675 -1.5735492 0.14624634 -0.5518916 -2.033218
-0.69014347 -0.9355707 -0.90029967 -1.388505 -0.57177114 -1.0694673 0.87388426 0.12479873
-1.1800145 -1.8060684 -0.48609436 -0.69869715 0.20328672 -1.1205039 -0.45867878 -0.16364515
00000000: cff3 33bf 7a54 3fbf c5e5 0cbf 1abb 12bf
00000010: d54f cebe 3697 3abf 7f4b 41bf af77 26bf
00000020: 3859 ecbe aab0 69bf bf92 703f 0401 15bf
00000030: 0f6a c9bf 9ac1 153e c548 0dbf 3e20 02c0
00000040: 3ead 30bf 9081 6fbf 0a7a 66bf 88ba b1bf
00000050: 985f 12bf 4ee4 88bf e1b6 5f3f 7a96 ff3d
00000060: b70a 97bf 402d e7bf 5ce1 f8be d1dd 32bf
00000070: 652a 503e ac6c 8fbf f2d7 eabe 9892 27be

weight f4 [64, 32]
0.100252606 -0.16301352 0.1613126 0.055119257 -0.10615572 -0.011504239 0.03529449 0.04561686
-0.018405605 0.0019288663 -0.12588288 -0.041200027 -0.16019078 0.024505096 0.02066212 -0.011883005
0.043224413 -0.15618525 0.14891209 -0.014872879 -0.21278484 0.027990215 -0.012928323 -0.07524536
-0.11837698 -0.11314151 0.0076528937 0.0010215463 -0.011067857 -0.22531821 -0.0137590105 -0.109475866
-0.9254574 0.75637263 -0.042703476 -0.100771286 -0.15096755 0.49638623 -3.646852 0.087175936
-0.1683916 -0.40548918 0.29032367 -0.05562181 0.45668948 0.33231175 -0.090982586 -1.7798576
0.1891752 -0.20418632 0.47528142 -5.9642634 0.045167435 -4.2634835 -0.12758003 -0.10153059
-0.787115 -3.143798 0.13385567 0.46853638 -0.11451476 -0.2453412 -0.0038387252 0.07468771
-0.15627988 0.51336914 -0.11474985 -1.2747462 0.66800696 2.465689 0.012418266 -0.16510798
-0.4082596 -0.37055364 0.036229067 -0.26544338 0.01747352 -0.2013702 -0.04971282 -0.59280723
-0.91243356 0.6928256 1.1829367 -0.10508079 -0.8733737 -1.6604512 -1.3687505 -2.2373595
-1.1213865 1.7386011 0.17595549 0.2788131 -1.9360403 0.14245422 0.07792248 0.18397026
0.0053122663 -0.012914512 0.09555374 -0.24770968 0.050615042 -0.09495283 -0.6442656 0.028750699
0.22333555 0.009237924 -0.19929 0.08661452 -0.17061351 -0.009869046 0.22160201 -0.019422466
0.013865992 -0.10661193 -0.025892107 0.16885693 -0.084336646 -0.22005141 -0.10761602 -0.3221883
0.07772518 0.11725237 -0.13069761 -0.034196723 -0.07610679 -0.13316049 0.12708116 -0.06878557
-1.3156233 2.6964686 -0.001791925 -2.0797513 1.9477465 -0.30913553 3.6361797 -1.4697632
1.8399324 -0.08048579 -4.642697 -0.074522264 -0.18331721 0.9999299 -0.059358817 -0.5309783
-1.1691022 -0.0776468 -3.0858119 -0.2416331 -1.005433 -0.539942 0.3024372 -0.034180567
-1.4943385 -0.001175229 -0.011806443 -1.7595954 -5.4555516 0.9186672 -1.2176133 -0.23130506
-0.0059053386 -0.25431064 -0.21296203 -0.02617065 -0.08245389 0.07141566 -0.1555068 0.06885298
-0.124697424 0.08116067 -0.16255893 0.018018065 -0.15466681 -0.019769823 -0.17697981 0.13306846
-0.100543045 -0.009657115 0.023189543 -0.0059554745 -0.15793218 -0.052973486 0.06667247 -0.008130987
-0.18098502 0.0379886 -0.12842698 -0.20660232 0.0529817 0.08474884 -0.11049465 -0.19329709
0.094732754 -0.0858208 0.14833768 0.10751346 -0.010786655 -0.13523328 -0.12881382 -0.094894566
-0.1535475 -0.12539227 -0.18516988 -0.14302325 0.028404469 -0.19853918 -0.034365848 -0.02779356
-0.20018578 0.001765117 0.028516263 -0.07234157 -0.20985603 -0.10738949 -0.187253 -0.010586441
0.02821829 0.15321846 -0.021644264 0.1116827 -0.06725604 0.10618676 -0.19274242 0.05815227
0.07476987 -0.5244434 -0.10853846 -0.036642782 -0.038353253 0.45252064 0.6906868 -0.23184294
-0.011368184 -0.11755011 0.23762979 0.058356628 0.7004053 -0.15872441 -0.045768946 -1.1354549
0.2016366 -0.3415155 0.19956668 -5.9196196 0.021651672 -4.102016 -0.08480939 0.020278333
0.01795997 -3.8555238 -0.095598765 -0.043677617 0.10506623 -0.68338984 -0.070120096 0.05497587
00000000: 3d51 cd3d 04ed 26be 212f 253e bbc4 613d
00000010: 2c68 d9bd 477c 3cbc f590 103d bfd8 3a3d
00000020: 5ac7 96bc 03d2 fc3a 71e7 00be 5cc1 28bd
00000030: 0d09 24be e9be c83c 9b43 a93c efb0 42bc
00000040: 150c 313d 07ef 1fbe 697c 183e 60ad 73bc
00000050: 45e4 59be bc4b e53c 51d1 53bc 3d1a 9abd
00000060: a16f f2bd bcb6 e7bd 20c5 fa3b 68e5 853a
00000070: f555 35bc d1b9 66be 796d 61bc e234 e0bd
00000080: c7ea 6cbf a3a1 413f d7e9 2ebd 2d61 cebd
00000090: 3d97 1abe 5626 fe3e 0666 69c0 4c89 b23d
000000a0: d96e 2cbe 479c cfbe 4ea5 943e b2d3 63bd
000000b0: 34d3 e93e c424 aa3e 1455 babd 60d2 e3bf
000000c0: 25b7 413e 3816 51be 1658 f33e 3fdb bec0
000000d0: 7d01 393d 756e 88c0 57a4 02be 45ef cfbd
000000e0: 5e80 49bf fd33 49c0 7611 093e 00e4 ef3e
000000f0: b786 eabd b93a 7bbe 1f93 7bbb dff5 983d
00000100: d507 20be 296c 033f f801 ebbd e22a a3bf
00000110: 8102 2b3f d9cd 1d40 fc75 4b3c 1112 29be
00000120: 6707 d1be 35b9 bdbe ee64 143d 32e8 87be
00000130: a124 8f3c fd33 4ebe ac9f 4bbd 37c2 17bf
00000140: 3f95 69bf 055d 313f 786a 973f 9934 d7bd
00000150: 6b95 5fbf aa89 d4bf 3733 afbf e630 0fc0
00000160: 9889 8fbf 7b8a de3f ad2d 343e 97c0 8e3e
00000170: 2bd0 f7bf 85df 113e d295 9f3d b362 3c3e
00000180: 8512 ae3b 6497 53bc aeb1 c33d 9ba7 7dbe
00000190: b851 4f3d a176 c2bd 97ee 24bf 9686 eb3c
000001a0: 13b2 643e a95a 173c ae12 4cbe f462 b13d
000001b0: 4fb5 2ebe c7b1 21bc a3eb 623e dd1b 9fbc
000001c0: 302e 633c 5b57 dabd af1b d4bc d5e8 2c3e
000001d0: b1b8 acbd 2855 61be ca65 dcbd ddf5 a4be
000001e0: 612e 9f3d 0322 f03d 98d5 05be dd11 0cbd
000001f0: e0dd 9bbd 395b 08be 9021 023e 73df 8cbd
00000200: 5866 a8bf f192 2c40 07df eaba a51a 05c0
00000210: c24f f93f 0347 9ebe 2bb7 6840 3321 bcbf
00000220: e882 eb3f bcd5 a4bd f990 94c0 219f 98bd
00000230: 82b7 3bbe 68fb 7f3f 3b22 73bd 32ee 07bf
00000240: 24a5 95bf 4905 9fbd f17d 45c0 ab6e 77be
00000250: 07b2 80bf a439 0abf 0cd9 9a3e ec00 0cbd
00000260: 7c46 bfbf 240a 9aba d06f 41bc 6c3a e1bf
00000270: e193 aec0 c62d 6b3f c1da 9bbf 3cdb 6cbe
00000280: 9281 c1bb 0135 82be b812 5abe d563 d6bc
00000290: 96dd a8bd 6042 923d 2d3d 1fbe cb02 8d3d
000002a0: 5d61 ffbd 9137 a63d d975 26be 9f9a 933c
000002b0: fa60 1ebe 53f4 a1bc 323a 35be 1943 083e
000002c0: 83e9 cdbd e038 1ebc fff7 bd3c 2426 c3bb
000002d0: f9b8 21be bafa 58bd 938b 883d d537 05bc
000002e0: 2354 39be ef99 1b3d 5d82 03be 8f8f 53be
000002f0: 5703 593d cd90 ad3d 054b e2bd acef 45be
00000300: 3f03 c23d d1c2 afbd d5e5 173e 0430 dc3d
00000310: 83ba 30bc 987a 0abe c5e7 03be 1558 c2bd
00000320: 8e3b 1dbe d566 00be 2c9d 3dbe b074 12be
00000330: 7db0 e83c db4d 4bbe 34c3 0cbd 52af e3bc
00000340: 80fd 4cbe 805b e73a f09a e93c d127 94bd
00000350: 80e4 56be 05ef dbbd 40bf 3fbe c072 2dbc
00000360: 0b2a e73c 4de5 1c3e 504f b1bc e6b9 e43d
00000370: 89bd 89bd 7278 d93d 455e 45be 1331 6e3d
00000380: f220 993d ec41 06bf 6a49 debd be16 16bd
00000390: 4d18 1dbd c9b0 e73e dad0 303f 3c68 6dbe
000003a0: 9f41 3abc 1dbe f0bd 3955 733e 5c07 6f3d
000003b0: c34d 333f a788 22be 3878 3bbd 9656 91bf
000003c0: d379 4e3e 1fdb aebe 355b 4c3e 866d bdc0
000003d0: d95e b13c b743 83c0 8cb0 adbd bf1e a63c
000003e0: c920 933c e7c0 76c0 49c9 c3bd 4de7 32bd
000003f0: f72c d73d a3f2 2ebf 209b 8fbd 612e 613d

bias f4 [64]
-0.15984887 0.658285 -0.43286455 -0.012335772 -0.30334306 -0.22487812 -0.17023721 0.6592034
-0.0234063 0.70502526 -0.1828614 -0.2393722 0.46248078 -0.47557062 -0.13305406 -0.020592744
-0.14850596 0.056214876 -0.3080764 -0.15246128 -0.11152023 0.49500886 0.6106669 -0.07436807
-0.01113815 0.005207449 -0.16746606 0.6979117 0.68268096 0.89885974 -0.23741512 1.1963608
-0.17707095 -0.2723764 0.018124124 -0.5914523 -0.14980924 0.068369135 0.7146366 -0.06564082
0.8909309 -0.6878791 0.80481064 -0.039647367 -0.16906685 0.8410542 0.040365007 0.91780293
0.82326263 -0.26680288 0.63575554 0.5363302 -0.22569163 0.28502414 -0.18020388 0.26030028
-0.8313851 0.4254185 -0.25471172 -0.048762403 -0.5170534 -0.33911043 -0.5718341 -0.027788818
00000000: 6caf 23be 5e85 283f 6ca0 ddbe fa1b 4abc
00000010: c84f 9bbe 7346 66be aa52 2ebe 8ec1 283f
00000020: 92be bfbc 897c 343f 0540 3bbe fc1d 75be
00000030: 48ca ec3e fe7d f3be 533f 08be 1db2 a8bc
00000040: f211 18be 9241 663d 31bc 9dbe cf1e 1cbe
00000050: b864 e4bd cd71 fd3e aa54 1c3f 494e 98bd
00000060: c97c 36bc 40a3 aa3b 397c 2bbe 57aa 323f
00000070: 2ec4 2e3f ac1b 663f f31c 73be 5a22 993f
00000080: 1652 35be eb74 8bbe 0b79 943c 6b69 17bf
00000090: 9867 19be 1e05 8c3d 6df2 363f b26e 86bd
000000a0: 0c14 643f d818 30bf 1208 4e3f 4765 22bd
000000b0: dc1f 2dbe 544f 573f c755 253d 22f5 6a3f
000000c0: 57c1 523f 639a 88be e0c0 223f f04c 093f
000000d0: b51b 67be afee 913e 5e87 38be 1446 853e
000000e0: a7d5 54bf 74d0 d93e 9369 82be 16bb 47bd
000000f0: 9d5d 04bf e29f adbe b863 12bf 60a5 e3bc

weight f4 [2, 64]
0.033235915 2.1798115 4.208481 -0.047974307 -1.6335919 0.035184864 0.0044309683 1.2671345
-0.023982614 1.2138903 0.014120699 0.084687136 0.2707616 -6.9463725 0.21617033 -0.076489985
2.4913983 -0.06855276 1.0536405 -2.2557049 -0.08351339 1.032453 1.4408069 -0.0036647513
-0.026297756 -0.008961751 0.0009267365 2.0635974 1.2213135 1.6034776 0.0851362 -0.9650284
-0.01286821 -0.044100177 -0.0104701985 -6.9053655 -0.41487864 -0.033231556 1.1764106 -5.3971972
1.0705569 -6.0384226 1.5279573 -0.024520503 0.027127486 -2.3638425 -0.026958728 0.197219
1.1938246 1.0132899 0.7792681 1.2466595 -0.07390937 0.43613198 0.023536026 1.3869873
-1.7576233 0.90965 -0.007839616 0.002258467 -4.973603 -3.351556 0.23982865 -0.113676645
0.08082941 0.7096414 0.47656384 -0.04611896 -9.942092 -0.03191738 0.028520763 0.8913995
0.0053191334 -0.75196224 0.008585379 -1.1395897 4.123558 0.33453816 -0.020397808 -0.004076911
10.415268 0.06838082 -0.06385202 -0.20172021 0.11091583 -0.40183958 1.4557378 0.012966574
-0.017737726 -0.026561711 -0.04535069 1.684047 1.1135756 2.5083387 -0.01677487 -2.7728295
0.0066021536 -0.061684605 -0.009850889 -5.235791 0.007313957 0.10760817 0.94044286 -0.20854537
2.6935134 0.28612077 1.4430528 0.012274371 -0.018730057 -0.9238993 0.019067818 2.0948584
2.637011 -0.8345764 0.926316 1.2411042 -0.013093826 0.57956743 0.003119871 -0.20069005
1.0087614 0.1449085 0.022821466 -0.0041186875 -0.13955447 -1.4897639 -8.745226 -3.625403
00000000: 6222 083d 0882 0b40 e0ab 8640 b580 44bd
00000010: 8a19 d1bf 011e 103d a831 913b 7731 a23f
00000020: 3077 c4bc c260 9b3f 815a 673c 7370 ad3d
00000030: 44a1 8a3e af48 dec0 c15b 5d3e c8a6 9cbd
00000040: 1273 1f40 6465 8cbd b1dd 863f 785d 10c0
00000050: 1109 abbd 6b27 843f 5c6c b83f 532c 70bb
00000060: 646e d7bc 4fd4 12bc 3cf0 723a fb11 0440
00000070: 0054 9c3f c13e cd3f e35b ae3d 1a0c 77bf
00000080: 2fd5 52bc 63a2 34bd 328b 2bbc c1f8 dcc0
00000090: f96a d4be d01d 08bd 9f94 963f d7b5 acc0
000000a0: 0208 893f c23a c1c0 1b94 c33f 39df c8bc
000000b0: 763a de3c 3249 17c0 8dd8 dcbc c7f3 493e
000000c0: 3fcf 983f 7cb3 813f 1d7e 473f 8a92 9f3f
000000d0: cc5d 97bd b14c df3e a0ce c03c cd88 b13f
000000e0: cdf9 e0bf d3de 683f bc71 00bc ca02 143b
000000f0: c127 9fc0 e57f 56c0 a495 753e 4dcf e8bd
00000100: e489 a53d 0fab 353f 2d00 f43e 3ce7 3cbd
00000110: cf12 1fc1 ccbb 02bd 60a4 e93c c232 643f
00000120: 204c ae3b 9980 40bf b1a9 0c3c 13de 91bf
00000130: 30f4 8340 9648 ab3e 4e19 a7bc 9c97 85bb
00000140: f0a4 2641 3e0b 8c3d d9c4 82bd be8f 4ebe
00000150: d727 e33d ebbd cdbe 9e55 ba3f c171 543c
00000160: b54e 91bc f297 d9bc a5c1 39bd da8e d73f
00000170: a589 8e3f 9f88 2040 746b 89bc 0a76 31c0
00000180: e156 d83b ffa8 7cbd a065 21bc 9a8b a7c0
00000190: eba9 ef3b ac61 dc3d ddc0 703f eb8c 55be
000001a0: 8662 2c40 6c7e 923e f4b5 b83f 721a 493c
000001b0: c76f 99bc aa84 6cbf 1d34 9c3c 2912 0640
000001c0: cac4 2840 cda6 55bf 0c23 6d3f 81dc 9e3f
000001d0: 7d87 56bc 885e 143f c076 4c3b b181 4dbe
000001e0: 181f 813f e562 143e 15f4 ba3c 0ef6 86bb
000001f0: 5ee7 0ebe 95b0 bebf 72ec 0bc1 9a06 68c0

bias f4 [2]
0.79296726 0.8371575
00000000: e7ff 4a3f f44f 563f

MLP.0.weight f4 [32, 4]
0.22090732 0.0034720385 2.4127655 0.18247458 -0.058085598 -0.030687066 3.2822156 -0.04860922
-0.1828045 0.109372385 -0.32926193 0.06301889 0.07545048 -0.13473378 -1.2275326 0.70326245
0.10957557 -0.2567774 3.2145307 0.073297635 -0.010654978 -0.032138526 -4.1500874 -0.34679255
-0.008639207 0.024116147 3.957883 0.37565583 -0.16124348 0.14188914 -1.2006388 0.17611074
-0.0054946314 -0.0070371507 1.9572749 -0.1047239 0.15982002 -0.5601969 1.7515068 -0.2874265
0.04006087 -0.12308055 -3.0919614 -0.31446752 0.24616875 -0.63741326 0.455466 -0.36412123
0.5933528 -0.22432388 -1.5479351 0.451574 -0.025349084 0.008699491 1.326415 -0.7994672
-0.13929571 0.012525314 0.023353485 -0.09317005 0.87216467 0.28120652 -0.35227114 0.116720274
-0.24071126 -0.06266343 -2.3690462 0.31543058 -0.25888973 0.16191877 -2.448324 0.23433083
-0.08743532 -0.128774 -2.6824176 -0.70688 0.5738209 0.0012675227 -0.03539308 0.0052045723
-0.085923724 -0.009692052 -1.7622918 -0.004436445 0.40557656 -0.040938802 0.042300653 -0.03248681
-0.0042001475 -0.0358412 3.0955822 0.3422771 0.043768518 0.11008865 0.42454138 0.029490234
0.718972 -0.28666675 -0.1237076 -0.24617968 -0.68345886 -0.08224673 0.09009002 0.14359602
0.1562882 0.035130028 0.06983188 0.032131173 -0.28895468 0.26462713 1.954917 0.63428324
0.086160295 -0.18124452 -2.1283162 1.1543868 -0.54057854 -0.02374813 -0.13887516 0.008215839
-0.100581914 0.09396847 -0.74056846 0.09237879 -0.031438928 0.03851818 -0.41202968 0.023357581
00000000: 8735 623e 248b 633b c06a 1a40 9eda 3a3e
00000010: 2aeb 6dbd 7163 fbbc d20f 5240 761a 47bd
00000020: 1a31 3bbe a1fe df3d 0595 a8be 0c10 813d
00000030: c885 9a3d a7f7 09be ca1f 9dbf 0209 343f
00000040: 2869 e03d 5478 83be dfba 4d40 121d 963d
00000050: 3892 2ebc b0a3 03bd 84cd 84c0 cb8e b1be
00000060: 768b 0dbc 3a8f c53c f44d 7d40 f655 c03e
00000070: 031d 25be 634b 113e 88ae 99bf 6056 343e
00000080: 4f0c b4bb e697 e6bb fc87 fa3f 7c79 d6bd
00000090: dca7 233e 1069 0fbf 6031 e03f 9129 93be
000000a0: de16 243d a811 fcbd b2e2 45c0 e301 a1be
000000b0: a913 7c3e 842d 23bf d732 e93e 196e babe
000000c0: f8e5 173f 29b5 65be bd22 c6bf b534 e73e
000000d0: e2a8 cfbc 4f88 0e3c f7c7 a93f e2a9 4cbf
000000e0: 89a3 0ebe fa36 4d3c cf4f bf3c f0cf bebd
000000f0: 2f46 5f3f 4dfa 8f3e e25c b4be 0a0b ef3d
00000100: 037d 76be af55 80bd 749e 17c0 1e80 a13e
00000110: 328d 84be 09ce 253e 57b1 1cc0 6cf4 6f3e
00000120: 4a11 b3bd 55dd 03be bbac 2bc0 16f6 34bf
00000130: ede5 123f 0123 a63a 56f8 10bd 1e8b aa3b
00000140: c7f8 afbd 6acb 1ebc c792 e1bf 995f 91bb
00000150: bba7 cf3e 72af 27bd 7343 2d3d e410 05bd
00000160: 64a1 89bb 39ce 12bd 051e 4640 f23e af3e
00000170: 9e46 333d 2876 e13d 7d5d d93e 8195 f13c
00000180: 8d0e 383f fcc5 92be 695a fdbd 8716 7cbe
00000190: 29f7 2ebf f970 a8bd 1e81 b83d d60a 133e
000001a0: 040a 203e 81e4 0f3d 0404 8f3d fa9b 033d
000001b0: def1 93be 357d 873e b83a fa3f 6360 223f
000001c0: cf74 b03d 2a98 39be 5536 08c0 f2c2 933f
000001d0: 5b63 0abf 708b c2bc 4a35 0ebe ba9b 063c
000001e0: e4fd cdbd 8b72 c03d e595 3dbf 1731 bd3d
000001f0: 1bc6 00bd 3dc5 1d3d 8ef5 d2be 6658 bf3c

MLP.0.bias f4 [32]
-0.702939 -0.74738276 -0.550381 -0.57316744 -0.40295282 -0.7288698 -0.7550582 -0.6502637
-0.46161819 -0.9128519 0.93973917 -0.58204675 -1.5735492 0.14624634 -0.5518916 -2.033218
-0.69014347 -0.9355707 -0.90029967 -1.388505 -0.57177114 -1.0694673 0.87388426 0.12479873
-1.1800145 -1.8060684 -0.48609436 -0.69869715 0.20328672 -1.1205039 -0.45867878 -0.16364515
00000000: cff3 33bf 7a54 3fbf c5e5 0cbf 1abb 12bf
00000010: d54f cebe 3697 3abf 7f4b 41bf af77 26bf
00000020: 3859 ecbe aab0 69bf bf92 703f 0401 15bf
00000030: 0f6a c9bf 9ac1 153e c548 0dbf 3e20 02c0
00000040: 3ead 30bf 9081 6fbf 0a7a 66bf 88ba b1bf
00000050: 985f 12bf 4ee4 88bf e1b6 5f3f 7a96 ff3d
00000060: b70a 97bf 402d e7bf 5ce1 f8be d1dd 32bf
00000070: 652a 503e ac6c 8fbf f2d7 eabe 9892 27be

MLP.2.weight f4 [64, 32]
0.100252606 -0.16301352 0.1613126 0.055119257 -0.10615572 -0.011504239 0.03529449 0.04561686
-0.018405605 0.0019288663 -0.12588288 -0.041200027 -0.16019078 0.024505096 0.02066212 -0.011883005
0.043224413 -0.15618525 0.14891209 -0.014872879 -0.21278484 0.027990215 -0.012928323 -0.07524536
-0.11837698 -0.11314151 0.0076528937 0.0010215463 -0.011067857 -0.22531821 -0.0137590105 -0.109475866
-0.9254574 0.75637263 -0.042703476 -0.100771286 -0.15096755 0.49638623 -3.646852 0.087175936
-0.1683916 -0.40548918 0.29032367 -0.05562181 0.45668948 0.33231175 -0.090982586 -1.7798576
0.1891752 -0.20418632 0.47528142 -5.9642634 0.045167435 -4.2634835 -0.12758003 -0.10153059
-0.787115 -3.143798 0.13385567 0.46853638 -0.11451476 -0.2453412 -0.0038387252 0.07468771
-0.15627988 0.51336914 -0.11474985 -1.2747462 0.66800696 2.465689 0.012418266 -0.16510798
-0.4082596 -0.37055364 0.036229067 -0.26544338 0.01747352 -0.2013702 -0.04971282 -0.59280723
-0.91243356 0.6928256 1.1829367 -0.10508079 -0.8733737 -1.6604512 -1.3687505 -2.2373595
-1.1213865 1.7386011 0.17595549 0.2788131 -1.9360403 0.14245422 0.07792248 0.18397026
0.0053122663 -0.012914512 0.09555374 -0.24770968 0.050615042 -0.09495283 -0.6442656 0.028750699
0.22333555 0.009237924 -0.19929 0.08661452 -0.17061351 -0.009869046 0.22160201 -0.019422466
0.013865992 -0.10661193 -0.025892107 0.16885693 -0.084336646 -0.22005141 -0.10761602 -0.3221883
0.07772518 0.11725237 -0.13069761 -0.034196723 -0.07610679 -0.13316049 0.12708116 -0.06878557
-1.3156233 2.6964686 -0.001791925 -2.0797513 1.9477465 -0.30913553 3.6361797 -1.4697632
1.8399324 -0.08048579 -4.642697 -0.074522264 -0.18331721 0.9999299 -0.059358817 -0.5309783
-1.1691022 -0.0776468 -3.0858119 -0.2416331 -1.005433 -0.539942 0.3024372 -0.034180567
-1.4943385 -0.001175229 -0.011806443 -1.7595954 -5.4555516 0.9186672 -1.2176133 -0.23130506
-0.0059053386 -0.25431064 -0.21296203 -0.02617065 -0.08245389 0.07141566 -0.1555068 0.06885298
-0.124697424 0.08116067 -0.16255893 0.018018065 -0.15466681 -0.019769823 -0.17697981 0.13306846
-0.100543045 -0.009657115 0.023189543 -0.0059554745 -0.15793218 -0.052973486 0.06667247 -0.008130987
-0.18098502 0.0379886 -0.12842698 -0.20660232 0.0529817 0.08474884 -0.11049465 -0.19329709
0.094732754 -0.0858208 0.14833768 0.10751346 -0.010786655 -0.13523328 -0.12881382 -0.094894566
-0.1535475 -0.12539227 -0.18516988 -0.14302325 0.028404469 -0.19853918 -0.034365848 -0.02779356
-0.20018578 0.001765117 0.028516263 -0.07234157 -0.20985603 -0.10738949 -0.187253 -0.010586441
0.02821829 0.15321846 -0.021644264 0.1116827 -0.06725604 0.10618676 -0.19274242 0.05815227
0.07476987 -0.5244434 -0.10853846 -0.036642782 -0.038353253 0.45252064 0.6906868 -0.23184294
-0.011368184 -0.11755011 0.23762979 0.058356628 0.7004053 -0.15872441 -0.045768946 -1.1354549
0.2016366 -0.3415155 0.19956668 -5.9196196 0.021651672 -4.102016 -0.08480939 0.020278333
0.01795997 -3.8555238 -0.095598765 -0.043677617 0.10506623 -0.68338984 -0.070120096 0.05497587
00000000: 3d51 cd3d 04ed 26be 212f 253e bbc4 613d
00000010: 2c68 d9bd 477c 3cbc f590 103d bfd8 3a3d
00000020: 5ac7 96bc 03d2 fc3a 71e7 00be 5cc1 28bd
00000030: 0d09 24be e9be c83c 9b43 a93c efb0 42bc
00000040: 150c 313d 07ef 1fbe 697c 183e 60ad 73bc
00000050: 45e4 59be bc4b e53c 51d1 53bc 3d1a 9abd
00000060: a16f f2bd bcb6 e7bd 20c5 fa3b 68e5 853a
00000070: f555 35bc d1b9 66be 796d 61bc e234 e0bd
00000080: c7ea 6cbf a3a1 413f d7e9 2ebd 2d61 cebd
00000090: 3d97 1abe 5626 fe3e 0666 69c0 4c89 b23d
000000a0: d96e 2cbe 479c cfbe 4ea5 943e b2d3 63bd
000000b0: 34d3 e93e c424 aa3e 1455 babd 60d2 e3bf
000000c0: 25b7 413e 3816 51be 1658 f33e 3fdb bec0
000000d0: 7d01 393d 756e 88c0 57a4 02be 45ef cfbd
000000e0: 5e80 49bf fd33 49c0 7611 093e 00e4 ef3e
000000f0: b786 eabd b93a 7bbe 1f93 7bbb dff5 983d
00000100: d507 20be 296c 033f f801 ebbd e22a a3bf
00000110: 8102 2b3f d9cd 1d40 fc75 4b3c 1112 29be
00000120: 6707 d1be 35b9 bdbe ee64 143d 32e8 87be
00000130: a124 8f3c fd33 4ebe ac9f 4bbd 37c2 17bf
00000140: 3f95 69bf 055d 313f 786a 973f 9934 d7bd
00000150: 6b95 5fbf aa89 d4bf 3733 afbf e630 0fc0
00000160: 9889 8fbf 7b8a de3f ad2d 343e 97c0 8e3e
00000170: 2bd0 f7bf 85df 113e d295 9f3d b362 3c3e
00000180: 8512 ae3b 6497 53bc aeb1 c33d 9ba7 7dbe
00000190: b851 4f3d a176 c2bd 97ee 24bf 9686 eb3c
000001a0: 13b2 643e a95a 173c ae12 4cbe f462 b13d
000001b0: 4fb5 2ebe c7b1 21bc a3eb 623e dd1b 9fbc
000001c0: 302e 633c 5b57 dabd af1b d4bc d5e8 2c3e
000001d0: b1b8 acbd 2855 61be ca65 dcbd ddf5 a4be
000001e0: 612e 9f3d 0322 f03d 98d5 05be dd11 0cbd
000001f0: e0dd 9bbd 395b 08be 9021 023e 73df 8cbd
00000200: 5866 a8bf f192 2c40 07df eaba a51a 05c0
00000210: c24f f93f 0347 9ebe 2bb7 6840 3321 bcbf
00000220: e882 eb3f bcd5 a4bd f990 94c0 219f 98bd
00000230: 82b7 3bbe 68fb 7f3f 3b22 73bd 32ee 07bf
00000240: 24a5 95bf 4905 9fbd f17d 45c0 ab6e 77be
00000250: 07b2 80bf a439 0abf 0cd9 9a3e ec00 0cbd
00000260: 7c46 bfbf 240a 9aba d06f 41bc 6c3a e1bf
00000270: e193 aec0 c62d 6b3f c1da 9bbf 3cdb 6cbe
00000280: 9281 c1bb 0135 82be b812 5abe d563 d6bc
00000290: 96dd a8bd 6042 923d 2d3d 1fbe cb02 8d3d
000002a0: 5d61 ffbd 9137 a63d d975 26be 9f9a 933c
000002b0: fa60 1ebe 53f4 a1bc 323a 35be 1943 083e
000002c0: 83e9 cdbd e038 1ebc fff7 bd3c 2426 c3bb
000002d0: f9b8 21be bafa 58bd 938b 883d d537 05bc
000002e0: 2354 39be ef99 1b3d 5d82 03be 8f8f 53be
000002f0: 5703 593d cd90 ad3d 054b e2bd acef 45be
00000300: 3f03 c23d d1c2 afbd d5e5 173e 0430 dc3d
00000310: 83ba 30bc 987a 0abe c5e7 03be 1558 c2bd
00000320: 8e3b 1dbe d566 00be 2c9d 3dbe b074 12be
00000330: 7db0 e83c db4d 4bbe 34c3 0cbd 52af e3bc
00000340: 80fd 4cbe 805b e73a f09a e93c d127 94bd
00000350: 80e4 56be 05ef dbbd 40bf 3fbe c072 2dbc
00000360: 0b2a e73c 4de5 1c3e 504f b1bc e6b9 e43d
00000370: 89bd 89bd 7278 d93d 455e 45be 1331 6e3d
00000380: f220 993d ec41 06bf 6a49 debd be16 16bd
00000390: 4d18 1dbd c9b0 e73e dad0 303f 3c68 6dbe
000003a0: 9f41 3abc 1dbe f0bd 3955 733e 5c07 6f3d
000003b0: c34d 333f a788 22be 3878 3bbd 9656 91bf
000003c0: d379 4e3e 1fdb aebe 355b 4c3e 866d bdc0
000003d0: d95e b13c b743 83c0 8cb0 adbd bf1e a63c
000003e0: c920 933c e7c0 76c0 49c9 c3bd 4de7 32bd
000003f0: f72c d73d a3f2 2ebf 209b 8fbd 612e 613d

MLP.2.bias f4 [64]
-0.15984887 0.658285 -0.43286455 -0.012335772 -0.30334306 -0.22487812 -0.17023721 0.6592034
-0.0234063 0.70502526 -0.1828614 -0.2393722 0.46248078 -0.47557062 -0.13305406 -0.020592744
-0.14850596 0.056214876 -0.3080764 -0.15246128 -0.11152023 0.49500886 0.6106669 -0.07436807
-0.01113815 0.005207449 -0.16746606 0.6979117 0.68268096 0.89885974 -0.23741512 1.1963608
-0.17707095 -0.2723764 0.018124124 -0.5914523 -0.14980924 0.068369135 0.7146366 -0.06564082
0.8909309 -0.6878791 0.80481064 -0.039647367 -0.16906685 0.8410542 0.040365007 0.91780293
0.82326263 -0.26680288 0.63575554 0.5363302 -0.22569163 0.28502414 -0.18020388 0.26030028
-0.8313851 0.4254185 -0.25471172 -0.048762403 -0.5170534 -0.33911043 -0.5718341 -0.027788818
00000000: 6caf 23be 5e85 283f 6ca0 ddbe fa1b 4abc
00000010: c84f 9bbe 7346 66be aa52 2ebe 8ec1 283f
00000020: 92be bfbc 897c 343f 0540 3bbe fc1d 75be
00000030: 48ca ec3e fe7d f3be 533f 08be 1db2 a8bc
00000040: f211 18be 9241 663d 31bc 9dbe cf1e 1cbe
00000050: b864 e4bd cd71 fd3e aa54 1c3f 494e 98bd
00000060: c97c 36bc 40a3 aa3b 397c 2bbe 57aa 323f
00000070: 2ec4 2e3f ac1b 663f f31c 73be 5a22 993f
00000080: 1652 35be eb74 8bbe 0b79 943c 6b69 17bf
00000090: 9867 19be 1e05 8c3d 6df2 363f b26e 86bd
000000a0: 0c14 643f d818 30bf 1208 4e3f 4765 22bd
000000b0: dc1f 2dbe 544f 573f c755 253d 22f5 6a3f
000000c0: 57c1 523f 639a 88be e0c0 223f f04c 093f
000000d0: b51b 67be afee 913e 5e87 38be 1446 853e
000000e0: a7d5 54bf 74d0 d93e 9369 82be 16bb 47bd
000000f0: 9d5d 04bf e29f adbe b863 12bf 60a5 e3bc

MLP.4.weight f4 [2, 64]
0.033235915 2.1798115 4.208481 -0.047974307 -1.6335919 0.035184864 0.0044309683 1.2671345
-0.023982614 1.2138903 0.014120699 0.084687136 0.2707616 -6.9463725 0.21617033 -0.076489985
2.4913983 -0.06855276 1.0536405 -2.2557049 -0.08351339 1.032453 1.4408069 -0.0036647513
-0.026297756 -0.008961751 0.0009267365 2.0635974 1.2213135 1.6034776 0.0851362 -0.9650284
-0.01286821 -0.044100177 -0.0104701985 -6.9053655 -0.41487864 -0.033231556 1.1764106 -5.3971972
1.0705569 -6.0384226 1.5279573 -0.024520503 0.027127486 -2.3638425 -0.026958728 0.197219
1.1938246 1.0132899 0.7792681 1.2466595 -0.07390937 0.43613198 0.023536026 1.3869873
-1.7576233 0.90965 -0.007839616 0.002258467 -4.973603 -3.351556 0.23982865 -0.113676645
0.08082941 0.7096414 0.47656384 -0.04611896 -9.942092 -0.03191738 0.028520763 0.8913995
0.0053191334 -0.75196224 0.008585379 -1.1395897 4.123558 0.33453816 -0.020397808 -0.004076911
10.415268 0.06838082 -0.06385202 -0.20172021 0.11091583 -0.40183958 1.4557378 0.012966574
-0.017737726 -0.026561711 -0.04535069 1.684047 1.1135756 2.5083387 -0.01677487 -2.7728295
0.0066021536 -0.061684605 -0.009850889 -5.235791 0.007313957 0.10760817 0.94044286 -0.20854537
2.6935134 0.28612077 1.4430528 0.012274371 -0.018730057 -0.9238993 0.019067818 2.0948584
2.637011 -0.8345764 0.926316 1.2411042 -0.013093826 0.57956743 0.003119871 -0.20069005
1.0087614 0.1449085 0.022821466 -0.0041186875 -0.13955447 -1.4897639 -8.745226 -3.625403
00000000: 6222 083d 0882 0b40 e0ab 8640 b580 44bd
00000010: 8a19 d1bf 011e 103d a831 913b 7731 a23f
00000020: 3077 c4bc c260 9b3f 815a 673c 7370 ad3d
00000030: 44a1 8a3e af48 dec0 c15b 5d3e c8a6 9cbd
00000040: 1273 1f40 6465 8cbd b1dd 863f 785d 10c0
00000050: 1109 abbd 6b27 843f 5c6c b83f 532c 70bb
00000060: 646e d7bc 4fd4 12bc 3cf0 723a fb11 0440
00000070: 0054 9c3f c13e cd3f e35b ae3d 1a0c 77bf
00000080: 2fd5 52bc 63a2 34bd 328b 2bbc c1f8 dcc0
00000090: f96a d4be d01d 08bd 9f94 963f d7b5 acc0
000000a0: 0208 893f c23a c1c0 1b94 c33f 39df c8bc
000000b0: 763a de3c 3249 17c0 8dd8 dcbc c7f3 493e
000000c0: 3fcf 983f 7cb3 813f 1d7e 473f 8a92 9f3f
000000d0: cc5d 97bd b14c df3e a0ce c03c cd88 b13f
000000e0: cdf9 e0bf d3de 683f bc71 00bc ca02 143b
000000f0: c127 9fc0 e57f 56c0 a495 753e 4dcf e8bd
00000100: e489 a53d 0fab 353f 2d00 f43e 3ce7 3cbd
00000110: cf12 1fc1 ccbb 02bd 60a4 e93c c232 643f
00000120: 204c ae3b 9980 40bf b1a9 0c3c 13de 91bf
00000130: 30f4 8340 9648 ab3e 4e19 a7bc 9c97 85bb
00000140: f0a4 2641 3e0b 8c3d d9c4 82bd be8f 4ebe
00000150: d727 e33d ebbd cdbe 9e55 ba3f c171 543c
00000160: b54e 91bc f297 d9bc a5c1 39bd da8e d73f
00000170: a589 8e3f 9f88 2040 746b 89bc 0a76 31c0
00000180: e156 d83b ffa8 7cbd a065 21bc 9a8b a7c0
00000190: eba9 ef3b ac61 dc3d ddc0 703f eb8c 55be
000001a0: 8662 2c40 6c7e 923e f4b5 b83f 721a 493c
000001b0: c76f 99bc aa84 6cbf 1d34 9c3c 2912 0640
000001c0: cac4 2840 cda6 55bf 0c23 6d3f 81dc 9e3f
000001d0: 7d87 56bc 885e 143f c076 4c3b b181 4dbe
000001e0: 181f 813f e562 143e 15f4 ba3c 0ef6 86bb
000001f0: 5ee7 0ebe 95b0 bebf 72ec 0bc1 9a06 68c0

MLP.4.bias f4 [2]
0.79296726 0.8371575
00000000: e7ff 4a3f f44f 563f

exp_avg f4 [32, 4]
-0.1427077 -0.060119316 -0.0072838846 -0.02004676 -6e-45 -6e-45 6e-45 -6e-45
-6e-45 -6e-45 -6e-45 6e-45 0.008014329 0.033874806 -0.0024184445 -0.03773213
0.38598588 0.19623813 0.029932672 0.021625247 -0.5498937 -0.48856917 0.060562517 0.300294
0.86938834 0.47324032 0.067733966 -0.01656223 -6e-45 6e-45 -6e-45 6e-45
-6e-45 -6e-45 6e-45 6e-45 0.00091451453 -0.002940954 0.0004699865 0.00049300154
-0.81583256 -0.4652928 -0.022821818 0.076949224 4.1373693e-05 0.00070513296 -0.00035860942 0.00031071997
-0.01813877 -0.003111501 0.0012836293 -0.004938193 0.29423505 0.1746794 0.012610538 -0.018441785
-6e-45 6e-45 6e-45 -6e-45 0.681585 0.4938388 -0.0068856534 -0.2618839
2.779804e-05 9.7462515e-05 -5.144496e-06 -2.507187e-05 -6e-45 -6e-45 -6e-45 6e-45
-0.00039285267 -0.0068876874 -6.713648e-06 0.009407781 6e-45 6e-45 6e-45 -6e-45
-6e-45 -6e-45 -6e-45 -6e-45 6e-45 6e-45 -6e-45 6e-45
0.5348787 0.6396 -0.07329738 -0.3366408 0.048333533 0.036201246 -0.0029962796 -0.027200734
-0.11521526 -0.011163318 -0.040005088 -0.16527024 6e-45 6e-45 6e-45 -6e-45
6e-45 6e-45 6e-45 6e-45 0.0013670865 0.035094757 -0.0017733187 -0.03773791
-0.78472716 -0.36369205 -0.057832196 -0.066618524 6e-45 6e-45 6e-45 -6e-45
-6e-45 6e-45 -6e-45 6e-45 -6e-45 -6e-45 -6e-45 6e-45
00000000: f821 12be ac3f 76bd a7ad eebb 1a39 a4bc
00000010: 0400 0080 0400 0080 0400 0000 0400 0080
00000020: 0400 0080 0400 0080 0400 0080 0400 0000
00000030: 884e 033c 4fc0 0a3d c47e 1ebb 028d 1abd
00000040: f19f c53e a6f2 483e 5d35 f53c 6e27 b13c
00000050: d5c5 0cbf bd25 fabe 6710 783d 23c0 993e
00000060: 3c90 5e3f 8e4c f23e 1bb8 8a3d 84ad 87bc
00000070: 0400 0080 0400 0000 0400 0080 0400 0000
00000080: 0400 0080 0400 0080 0400 0000 0400 0000
00000090: 08bc 6f3a 05bd 40bb 8568 f639 c63c 013a
000000a0: 67da 50bf dc3a eebe d2f4 babc 8e97 9d3d
000000b0: aa88 2d38 acd8 383a be03 bcb9 21e8 a239
000000c0: c297 94bc 53ea 4bbb 743f a83a 91d0 a1bb
000000d0: faa5 963e 28df 323e 6e9c 4e3c 3a13 97bc
000000e0: 0400 0080 0400 0000 0400 0000 0400 0080
000000f0: 5b7c 2e3f 70d8 fc3e 0ca1 e1bb a615 86be
00000100: d62f e937 ca64 cc38 e29e acb6 6e51 d2b7
00000110: 0400 0080 0400 0080 0400 0080 0400 0000
00000120: cbf7 cdb9 1cb2 e1bb cc45 e1b6 1823 1a3c
00000130: 0400 0000 0400 0000 0400 0000 0400 0080
00000140: 0400 0080 0400 0080 0400 0080 0400 0080
00000150: 0400 0000 0400 0000 0400 0080 0400 0000
00000160: cfed 083f d3bc 233f f01c 96bd 2f5c acbe
00000170: 62f9 453d c247 143d 3b5d 44bb 13d4 debc
00000180: faf5 ebbd 59e6 36bc 60dc 23bd 9a3c 29be
00000190: 0400 0000 0400 0000 0400 0000 0400 0080
000001a0: 0400 0000 0400 0000 0400 0000 0400 0000
000001b0: d02f b33a 85bf 0f3d b46e e8ba 1193 1abd
000001c0: e1e3 48bf d835 babe 74e1 6cbd 4b6f 88bd
000001d0: 0400 0000 0400 0000 0400 0000 0400 0080
000001e0: 0400 0080 0400 0000 0400 0080 0400 0000
000001f0: 0400 0080 0400 0080 0400 0080 0400 0000

exp_avg_sq f4 [32, 4]
0.29055384 0.087803006 0.002367826 0.0061310246 2.4328145e-26 3.338564e-25 4.4354706e-27 6.707353e-27
7e-43 7e-43 7e-43 7e-43 0.005512552 0.0028091269 5.670882e-05 0.0057615554
1.1862963 0.34085888 0.034422923 0.08598631 8.685031 2.2905307 0.112939976 0.4741431
8.000551 2.3599715 0.25272265 0.93046296 7e-43 7e-43 7e-43 7e-43
7e-43 7e-43 7e-43 7e-43 9.749139e-05 0.00068483216 5.6213335e-06 0.00015528248
8.475303 2.4790025 0.228152 0.64662725 0.0011063038 0.0012351747 1.4731678e-05 0.00024900047
0.053251944 0.0027429818 0.00036116954 0.0015145458 1.3703636 0.6129497 0.030077562 0.06743639
7e-43 7e-43 7e-43 7e-43 22.17673 8.610705 0.07679138 2.566947
3.9974002e-05 0.00031002663 8.65872e-08 0.00020000822 7e-43 7e-43 7e-43 7e-43
0.003692561 0.009155026 6.143281e-05 0.007389783 7e-43 7e-43 7e-43 7e-43
1.00098356e-14 3.8394784e-15 4.593505e-17 8.3386635e-17 7e-43 7e-43 7e-43 7e-43
50.465103 12.136926 0.65926725 2.116418 0.100732654 0.03608526 0.0013393905 0.014751815
4.0011005 1.5940688 0.013867678 0.5050796 3.620053e-16 3.5113386e-16 1.3563288e-19 2.2897339e-17
7e-43 7e-43 7e-43 7e-43 0.00040031585 0.002628749 0.00020567399 0.0046935915
3.58137 0.74125427 0.06133877 0.10806184 9.609615e-07 4.1994141e-07 4.6100896e-09 4.864231e-09
7e-43 7e-43 7e-43 7e-43 7e-43 7e-43 7e-43 7e-43
00000000: 79c3 943e 10d2 b33d 872d 1b3b c3e6 c83b
00000010: 2def f014 a9a5 ce16 04b5 af13 52da 0414
00000020: f401 0000 f401 0000 f401 0000 f401 0000
00000030: a3a2 b43b 5419 383b a2da 6d38 6ecb bc3b
00000040: 8fd8 973f 0e85 ae3e 0dff 0c3d 9719 b03d
00000050: e3f5 0a41 0e98 1240 134d e73d e2c2 f23e
00000060: 4202 0041 c609 1740 dd64 813e d232 6e3f
00000070: f401 0000 f401 0000 f401 0000 f401 0000
00000080: f401 0000 f401 0000 f401 0000 f401 0000
00000090: 4b74 cc38 4f86 333a e39e bc36 53d3 2239
000000a0: d79a 0741 faa7 1e40 aea0 693e 5d89 253f
000000b0: 6501 913a 96e5 a13a 1328 7737 478c 8239
000000c0: b61e 5a3d 99c3 333b 5b5b bd39 b983 c63a
000000d0: 1368 af3f 46ea 1c3f 3865 f63c 171c 8a3d
000000e0: f401 0000 f401 0000 f401 0000 f401 0000
000000f0: f169 b141 73c5 0941 cd44 9d3d dc48 2440
00000100: c2a9 2738 128b a239 d1f1 b933 4cb9 5139
00000110: f401 0000 f401 0000 f401 0000 f401 0000
00000120: e5fe 713b f6fe 153c 7dd5 8038 fe25 f23b
00000130: f401 0000 f401 0000 f401 0000 f401 0000
00000140: 3852 3428 f054 8a27 89d6 5324 c846 c024
00000150: f401 0000 f401 0000 f401 0000 f401 0000
00000160: 44dc 4942 d930 4241 bdc5 283f 6473 0740
00000170: ec4c ce3d 23ce 133d 7d8e af3a 99b1 713c
00000180: 0409 8040 720a cc3f 4235 633c e64c 013f
00000190: 8eae d025 366a ca25 8620 2020 d030 d323
000001a0: f401 0000 f401 0000 f401 0000 f401 0000
000001b0: 7ce1 d139 1747 2c3b 31aa 5739 b3cc 993b
000001c0: 2b35 6540 d7c2 3d3f 5d3e 7b3d 874f dd3d
000001d0: 63fa 8035 4f74 e134 c766 9e31 3a22 a731
000001e0: f401 0000 f401 0000 f401 0000 f401 0000
000001f0: f401 0000 f401 0000 f401 0000 f401 0000

exp_avg f4 [32]
-0.04345652 6e-45 6e-45 -0.02131179 0.14931448 -0.36080894 0.29731113 6e-45
6e-45 0.0023128632 -0.33449692 -0.0012318167 -0.008006095 0.12702657 6e-45 0.30340907
-2.909729e-06 6e-45 -0.0056768004 6e-45 6e-45 6e-45 0.47474205 0.01782847
-0.04360256 -6e-45 6e-45 -0.02112957 -0.25059298 -6e-45 6e-45 6e-45
00000000: 77ff 31bd 0400 0000 0400 0000 1096 aebc
00000010: e5e5 183e f3bb b8be 2a39 983e 0400 0000
00000020: 0400 0000 6893 173b 2e43 abbe e974 a1ba
00000030: ff2b 03bc 4113 023e 0400 0000 6f58 9b3e
00000040: c344 43b6 0400 0000 7404 babb 0400 0000
00000050: 0400 0000 0400 0000 6411 f33e 030d 923c
00000060: 9998 32bd 0400 0080 0400 0000 ec17 adbc
00000070: b94d 80be 0400 0080 0400 0000 0400 0000

exp_avg_sq f4 [32]
0.0756669 1.2755411e-25 7e-43 0.002995923 0.8469287 2.8281624 6.383799 7e-43
7e-43 0.00018973587 5.833483 0.0005974088 0.0095124245 0.73174024 7e-43 3.9883192
5.0115304e-05 7e-43 0.003652116 7e-43 1.7877833e-15 7e-43 16.339043 0.038551662
0.71777934 7.0531044e-17 7e-43 0.006337059 1.5012407 1.768464e-07 7e-43 7e-43
00000000: 3ff7 9a3d 83e7 1d16 f401 0000 3f57 443b
00000010: 52d0 583f 9d00 3540 1548 cc40 f401 0000
00000020: f401 0000 d6f3 4639 e5ab ba40 6d9b 1c3a
00000030: 00da 1b3c 5453 3b3f f401 0000 9f40 7f40
00000040: e632 5238 f401 0000 5758 6f3b f401 0000
00000050: c8d2 0027 f401 0000 5cb6 8241 59e8 1d3d
00000060: 63c0 373f 2ea2 a224 f401 0000 1ba7 cf3b
00000070: a828 c03f 2be3 3d34 f401 0000 f401 0000

exp_avg f4 [64, 32]
6e-45 6e-45 0.0 6e-45 6e-45 -6e-45 6e-45 6e-45
6e-45 6e-45 6e-45 6e-45 6e-45 6e-45 6e-45 6e-45
6e-45 6e-45 6e-45 0.0 6e-45 6e-45 6e-45 6e-45
6e-45 6e-45 0.0 6e-45 6e-45 6e-45 6e-45 6e-45
-1.4332279e-05 -6e-45 6e-45 -0.000332591 0.0012676589 0.006707706 1.6846814e-06 6e-45
6e-45 -6.0774284e-05 0.025103519 0.00021102939 -0.0013656162 0.010448019 -6e-45 -0.0020836256
-1.8797069e-05 6e-45 0.000114460054 -6e-45 6e-45 -6e-45 0.008248233 0.0027613977
-0.0019693575 -6e-45 -6e-45 0.00012088919 -0.007788171 6e-45 6e-45 -6e-45
0.0 6e-45 -6e-45 6e-45 6e-45 -0.0009985457 6e-45 6e-45
6e-45 6e-45 -0.0037776139 -6e-45 6e-45 -0.0009748827 0.0 -7.063939e-18
-6e-45 -6e-45 -0.00055348483 6e-45 6e-45 6e-45 6e-45 -2.6776526e-05
6e-45 -6e-45 0.0 6e-45 -6e-45 -6e-45 6e-45 6e-45
-6e-45 6e-45 0.0 6e-45 6e-45 6e-45 6e-45 6e-45
6e-45 6e-45 6e-45 6e-45 6e-45 6e-45 6e-45 6e-45
6e-45 6e-45 6e-45 0.0 6e-45 6e-45 6e-45 6e-45
6e-45 -6e-45 0.0 6e-45 6e-45 6e-45 6e-45 6e-45
0.019790858 6e-45 6e-45 6e-45 0.015543084 -6e-45 0.0099606365 -6e-45
6e-45 6e-45 0.009155303 6e-45 6e-45 0.010828584 6e-45 0.01892104
6e-45 6e-45 6e-45 6e-45 6e-45 6e-45 0.08473931 0.02621656
0.0057194983 6e-45 0.0 1.5298854e-08 -0.0002493038 6e-45 6e-45 6e-45
6e-45 6e-45 6e-45 6e-45 6e-45 6e-45 6e-45 6e-45
6e-45 6e-45 6e-45 6e-45 0.0 6e-45 6e-45 6e-45
6e-45 6e-45 6e-45 -6e-45 6e-45 6e-45 6e-45 6e-45
6e-45 6e-45 0.0 6e-45 -6e-45 6e-45 6e-45 6e-45
6e-45 6e-45 0.0 6e-45 6e-45 0.0 6e-45 6e-45
6e-45 6e-45 6e-45 6e-45 6e-45 6e-45 0.0 6e-45
6e-45 0.0 0.0 0.0 6e-45 6e-45 6e-45 6e-45
6e-45 0.0 0.0 6e-45 6e-45 0.0 6e-45 6e-45
-0.0028915673 -6e-45 6e-45 0.0069444445 0.0013911884 0.0040112277 9.236381e-05 6e-45
6e-45 -7.698636e-05 0.023043845 0.00015011607 -0.0007976969 0.0074055875 -6e-45 -0.0025486555
-2.1342608e-05 6e-45 0.00011606077 -6e-45 6e-45 -6e-45 0.012869938 0.0002174579
-0.0011294311 6e-45 -6e-45 0.0016250667 0.018748147 6e-45 6e-45 -6e-45
00000000: 0400 0000 0400 0000 0000 0000 0400 0000
00000010: 0400 0000 0400 0080 0400 0000 0400 0000
00000020: 0400 0000 0400 0000 0400 0000 0400 0000
00000030: 0400 0000 0400 0000 0400 0000 0400 0000
00000040: 0400 0000 0400 0000 0400 0000 0000 0000
00000050: 0400 0000 0400 0000 0400 0000 0400 0000
00000060: 0400 0000 0400 0000 0000 0000 0400 0000
00000070: 0400 0000 0400 0000 0400 0000 0400 0000
00000080: ab74 70b7 0400 0080 0400 0000 9c5f aeb9
00000090: 9327 a63a 51cc db3b 361d e235 0400 0000
000000a0: 0400 0000 e4e7 7eb8 e5a5 cd3c c547 5d39
000000b0: 7afe b2ba 2b2e 2b3c 0400 0080 708d 08bb
000000c0: 66ae 9db7 0400 0000 460a f038 0400 0080
000000d0: 0400 0000 0400 0080 9923 073c 91f8 343b
000000e0: 5610 01bb 0400 0080 0400 0080 e485 fd38
000000f0: ea33 ffbb 0400 0000 0400 0000 0400 0080
00000100: 0000 0000 0400 0000 0400 0080 0400 0000
00000110: 0400 0000 a2e1 82ba 0400 0000 0400 0000
00000120: 0400 0000 0400 0000 d891 77bb 0400 0080
00000130: 0400 0000 458f 7fba 0000 0000 824e 02a3
00000140: 0400 0080 0400 0080 bd17 11ba 0400 0000
00000150: 0400 0000 0400 0000 0400 0000 279e e0b7
00000160: 0400 0000 0400 0080 0000 0000 0400 0000
00000170: 0400 0080 0400 0080 0400 0000 0400 0000
00000180: 0400 0080 0400 0000 0000 0000 0400 0000
00000190: 0400 0000 0400 0000 0400 0000 0400 0000
000001a0: 0400 0000 0400 0000 0400 0000 0400 0000
000001b0: 0400 0000 0400 0000 0400 0000 0400 0000
000001c0: 0400 0000 0400 0000 0400 0000 0000 0000
000001d0: 0400 0000 0400 0000 0400 0000 0400 0000
000001e0: 0400 0000 0400 0080 0000 0000 0400 0000
000001f0: 0400 0000 0400 0000 0400 0000 0400 0000
00000200: 7020 a23c 0400 0000 0400 0000 0400 0000
00000210: 6ba8 7e3c 0400 0080 f031 233c 0400 0080
00000220: 0400 0000 0400 0000 2000 163c 0400 0000
00000230: 0400 0000 606a 313c 0400 0000 4c00 9b3c
00000240: 0400 0000 0400 0000 0400 0000 0400 0000
00000250: 0400 0000 0400 0000 ce8b ad3d 1cc4 d63c
00000260: a16a bb3b 0400 0000 0000 0000 896a 8332
00000270: fdb4 82b9 0400 0000 0400 0000 0400 0000
00000280: 0400 0000 0400 0000 0400 0000 0400 0000
00000290: 0400 0000 0400 0000 0400 0000 0400 0000
000002a0: 0400 0000 0400 0000 0400 0000 0400 0000
000002b0: 0000 0000 0400 0000 0400 0000 0400 0000
000002c0: 0400 0000 0400 0000 0400 0000 0400 0080
000002d0: 0400 0000 0400 0000 0400 0000 0400 0000
000002e0: 0400 0000 0400 0000 0000 0000 0400 0000
000002f0: 0400 0080 0400 0000 0400 0000 0400 0000
00000300: 0400 0000 0400 0000 0000 0000 0400 0000
00000310: 0400 0000 0000 0000 0400 0000 0400 0000
00000320: 0400 0000 0400 0000 0400 0000 0400 0000
00000330: 0400 0000 0400 0000 0000 0000 0400 0000
00000340: 0400 0000 0000 0000 0000 0000 0000 0000
00000350: 0400 0000 0400 0000 0400 0000 0400 0000
00000360: 0400 0000 0000 0000 0000 0000 0400 0000
00000370: 0400 0000 0000 0000 0400 0000 0400 0000
00000380: 7380 3dbb 0400 0080 0400 0000 398e e33b
00000390: 8958 b63a 9e70 833b 71b3 c138 0400 0000
000003a0: 0400 0000 bd73 a1b8 72c6 bc3c 7a68 1d39
000003b0: 881c 51ba 92aa f23b 0400 0080 5807 27bb
000003c0: e708 b3b7 0400 0000 a765 f338 0400 0080
000003d0: 0400 0000 0400 0080 6fdc 523c 6905 6439
000003e0: 6b09 94ba 0400 0000 0400 0080 3100 d53a
000003f0: b795 993c 0400 0000 0400 0000 0400 0080

exp_avg_sq f4 [64, 32]
7e-43 7e-43 0.0 7e-43 7e-43 7e-43 7e-43 7e-43
7e-43 7e-43 7e-43 7e-43 7e-43 7e-43 7e-43 7e-43
7e-43 7e-43 7e-43 0.0 7e-43 7e-43 7e-43 7e-43
7e-43 7e-43 0.0 7e-43 7e-43 7e-43 7e-43 7e-43
4.2279335e-06 6.840434e-30 7e-43 0.0006393422 0.00012857074 0.00075612194 4.6355126e-06 7e-43
7e-43 2.2292277e-05 0.08747823 4.0727944e-05 6.828414e-05 0.013655257 7e-43 0.0020137953
9.006684e-07 7e-43 6.791566e-05 7e-43 8.194353e-17 7e-43 0.011557273 0.002931252
0.0027122663 1.64247e-23 7e-43 9.836872e-07 0.011630458 5.488009e-11 7e-43 7e-43
0.0 7e-43 7e-43 7e-43 7e-43 7.7805336e-05 7e-43 7e-43
7e-43 5.3503635e-30 0.0016943498 2.8866017e-26 6.4782644e-26 0.00046947662 0.0 1.0409049e-07
1.8867615e-38 7e-43 4.9018894e-05 7e-43 1.5715626e-34 7e-43 1.6849995e-09 2.0129892e-05
5.3944352e-11 7e-43 0.0 7e-43 7.615332e-18 4.07807e-40 7e-43 7e-43
7e-43 7e-43 0.0 7e-43 7e-43 7e-43 7e-43 7e-43
7e-43 7e-43 7e-43 7e-43 7e-43 7e-43 7e-43 7e-43
7e-43 7e-43 7e-43 0.0 7e-43 7e-43 7e-43 7e-43
7e-43 7e-43 0.0 7e-43 7e-43 7e-43 7e-43 7e-43
0.0010689805 3.0102497e-32 7e-43 7e-43 0.0039412924 7e-43 0.0012298194 7e-43
7e-43 7e-43 0.0030972909 7e-43 7e-43 0.0033348922 7e-43 0.0009530144
7e-43 7e-43 7e-43 7e-43 7e-43 7e-43 0.14970887 0.0073477384
5.0825976e-05 7e-43 0.0 5.067577e-07 1.6597389e-05 7e-43 7e-43 7e-43
7e-43 7e-43 7e-43 7e-43 7e-43 7e-43 7e-43 7e-43
7e-43 7e-43 7e-43 7e-43 0.0 7e-43 7e-43 7e-43
7e-43 7e-43 7e-43 7e-43 7e-43 7e-43 7e-43 7e-43
7e-43 7e-43 0.0 7e-43 7e-43 7e-43 7e-43 7e-43
7e-43 7e-43 0.0 7e-43 7e-43 0.0 7e-43 7e-43
7e-43 7e-43 7e-43 7e-43 7e-43 7e-43 0.0 7e-43
7e-43 0.0 0.0 0.0 7e-43 7e-43 7e-43 7e-43
7e-43 0.0 0.0 7e-43 7e-43 0.0 7e-43 7e-43
5.158837e-05 5.7257897e-30 7e-43 0.00043543908 0.00018284321 0.00027901566 7.213681e-05 7e-43
7e-43 9.8863775e-06 0.03288321 2.2415692e-05 3.8679947e-05 0.005960208 7e-43 0.0009549299
4.389995e-07 7e-43 3.215206e-05 7e-43 2.7577297e-17 7e-43 0.011616097 0.001581658
0.0010366914 5.1575963e-22 7e-43 2.030205e-05 0.006908138 4.1982074e-11 7e-43 7e-43
00000000: f401 0000 f401 0000 0000 0000 f401 0000
00000010: f401 0000 f401 0000 f401 0000 f401 0000
00000020: f401 0000 f401 0000 f401 0000 f401 0000
00000030: f401 0000 f401 0000 f401 0000 f401 0000
00000040: f401 0000 f401 0000 f401 0000 0000 0000
00000050: f401 0000 f401 0000 f401 0000 f401 0000
00000060: f401 0000 f401 0000 0000 0000 f401 0000
00000070: f401 0000 f401 0000 f401 0000 f401 0000
00000080: acdd 8d36 90bd 0a0f f401 0000 8799 273a
00000090: f2d0 0639 7c36 463a c08a 9b36 f401 0000
000000a0: f401 0000 4d00 bb37 c927 b33d 4cd3 2a38
000000b0: c533 8f38 4dba 5f3c f401 0000 e1f9 033b
000000c0: 76c5 7135 f401 0000 f16d 8e38 f401 0000
000000d0: ecf2 bc24 f401 0000 b75a 3d3c 3f1a 403b
000000e0: 47c0 313b 96d9 9e19 f401 0000 3c07 8435
000000f0: ad8d 3e3c 7d5d 712e f401 0000 f401 0000
00000100: 0000 0000 f401 0000 f401 0000 f401 0000
00000110: f401 0000 6c2b a338 f401 0000 f401 0000
00000120: f401 0000 5a09 d90e f214 de3a 06f0 0e15
00000130: e164 a015 1624 f639 0000 0000 5a88 df33
00000140: 3c73 cd00 f401 0000 a399 4d38 f401 0000
00000150: 81e5 5007 f401 0000 a695 e730 9ddc a837
00000160: f13f 6d2e f401 0000 0000 0000 f401 0000
00000170: 637a 0c23 cd70 0400 f401 0000 f401 0000
00000180: f401 0000 f401 0000 0000 0000 f401 0000
00000190: f401 0000 f401 0000 f401 0000 f401 0000
000001a0: f401 0000 f401 0000 f401 0000 f401 0000
000001b0: f401 0000 f401 0000 f401 0000 f401 0000
000001c0: f401 0000 f401 0000 f401 0000 0000 0000
000001d0: f401 0000 f401 0000 f401 0000 f401 0000
000001e0: f401 0000 f401 0000 0000 0000 f401 0000
000001f0: f401 0000 f401 0000 f401 0000 f401 0000
00000200: 091d 8c3a 154d 1c0b f401 0000 f401 0000
00000210: f525 813b f401 0000 e431 a13a f401 0000
00000220: f401 0000 f401 0000 ebfb 4a3b f401 0000
00000230: f401 0000 358e 5a3b f401 0000 b7d3 793a
00000240: f401 0000 f401 0000 f401 0000 f401 0000
00000250: f401 0000 f401 0000 484d 193e 4cc5 f03b
00000260: fa2d 5538 f401 0000 0000 0000 2008 0835
00000270: 9f3a 8b37 f401 0000 f401 0000 f401 0000
00000280: f401 0000 f401 0000 f401 0000 f401 0000
00000290: f401 0000 f401 0000 f401 0000 f401 0000
000002a0: f401 0000 f401 0000 f401 0000 f401 0000
000002b0: 0000 0000 f401 0000 f401 0000 f401 0000
000002c0: f401 0000 f401 0000 f401 0000 f401 0000
000002d0: f401 0000 f401 0000 f401 0000 f401 0000
000002e0: f401 0000 f401 0000 0000 0000 f401 0000
000002f0: f401 0000 f401 0000 f401 0000 f401 0000
00000300: f401 0000 f401 0000 0000 0000 f401 0000
00000310: f401 0000 0000 0000 f401 0000 f401 0000
00000320: f401 0000 f401 0000 f401 0000 f401 0000
00000330: f401 0000 f401 0000 0000 0000 f401 0000
00000340: f401 0000 0000 0000 0000 0000 0000 0000
00000350: f401 0000 f401 0000 f401 0000 f401 0000
00000360: f401 0000 0000 0000 0000 0000 f401 0000
00000370: f401 0000 0000 0000 f401 0000 f401 0000
00000380: 9760 5838 0044 e80e f401 0000 a54b e439
00000390: 9ab9 3f39 d948 9239 2848 9738 f401 0000
000003a0: f401 0000 abdd 2537 8bb0 063d 5509 bc37
000003b0: 473c 2238 d94d c33b f401 0000 4354 7a3a
000003c0: a2af eb34 f401 0000 03db 0638 f401 0000
000003d0: 0d5b fe23 f401 0000 7151 3e3c a34f cf3a
000003e0: 97e1 873a f8e0 1b1c f401 0000 524e aa37
000003f0: a95d e23b 9da3 382e f401 0000 f401 0000

exp_avg f4 [64]
6e-45 0.019179797 -0.0019764048 6e-45 0.055656545 6e-45 6e-45 0.018849794
6e-45 -0.0015991273 6e-45 6e-45 0.0042434987 6e-45 6e-45 6e-45
-0.08639128 6e-45 6e-45 0.0011792034 6e-45 0.0033326794 0.02690584 6e-45
6e-45 6e-45 6e-45 0.044904046 0.021986626 0.04570626 6e-45 -0.060110684
6e-45 6e-45 6e-45 -6e-45 6e-45 6e-45 0.018897483 0.0055198525
0.04432141 -0.075248696 0.022559509 6e-45 6e-45 -0.044674806 6e-45 0.012232341
0.058969907 6e-45 0.013693726 0.02306073 6e-45 -0.00021675612 6e-45 -0.0017960549
-0.024075301 0.00585151 6e-45 6e-45 0.00383554 -0.0170991 0.06617588 -0.010213342
00000000: 0400 0000 f31e 9d3c 9286 01bb 0400 0000
00000010: 1ef8 633d 0400 0000 0400 0000 e26a 9a3c
00000020: 0400 0000 cf99 d1ba 0400 0000 0400 0000
00000030: 0c0d 8b3b 0400 0000 0400 0000 0400 0000
00000040: e9ed b0bd 0400 0000 0400 0000 808f 9a3a
00000050: 0400 0000 1569 5a3b a369 dc3c 0400 0000
00000060: 0400 0000 0400 0000 0400 0000 4eed 373d
00000070: 4c1d b43c 7d36 3b3d 0400 0000 9f36 76bd
00000080: 0400 0000 0400 0000 0400 0000 0400 0080
00000090: 0400 0000 0400 0000 e5ce 9a3c e1df b43b
000000a0: 5e8a 353d fd1b 9abd b8ce b83c 0400 0000
000000b0: 0400 0000 eefc 36bd 0400 0000 286a 483c
000000c0: 6e8a 713d 0400 0000 a65b 603c dbe9 bc3c
000000d0: 0400 0000 0749 63b9 0400 0000 9a69 ebba
000000e0: 9139 c5bc 06be bf3b 0400 0000 0400 0000
000000f0: af5d 7b3b 6913 8cbc 3887 873d dc55 27bc

exp_avg_sq f4 [64]
7e-43 0.042571556 0.0005684648 7e-43 0.06268035 7e-43 7e-43 0.0196297
7e-43 0.014386492 7e-43 7e-43 0.00433923 1.466e-42 7e-43 7e-43
0.024864545 7e-43 2.147306e-25 0.0025205524 7e-43 0.0011265989 0.032883294 7e-43
7e-43 7e-43 7e-43 0.055627972 0.02136467 0.05996021 7e-43 0.032227397
7e-43 7e-43 7e-43 7e-43 7e-43 7e-43 0.018341022 0.019673508
0.054145273 0.10163042 0.03487356 7e-43 7e-43 0.031457942 7e-43 0.027675489
0.05617677 7e-43 0.011014127 0.024380283 7e-43 0.00029537405 7e-43 0.0034722174
0.013631878 0.0069056097 7e-43 7e-43 0.008793703 0.024389774 0.08002471 0.0036766476
00000000: f401 0000 835f 2e3d 0705 153a f401 0000
00000010: 8e5e 803d f401 0000 f401 0000 77ce a03c
00000020: f401 0000 52b5 6b3c f401 0000 f401 0000
00000030: 1930 8e3b 1604 0000 f401 0000 f401 0000
00000040: bbb0 cb3c f401 0000 6ce9 8416 da2f 253b
00000050: f401 0000 63aa 933a a2b0 063d f401 0000
00000060: f401 0000 f401 0000 f401 0000 28da 633d
00000070: f604 af3c d698 753d f401 0000 e000 043d
00000080: f401 0000 f401 0000 f401 0000 f401 0000
00000090: f401 0000 f401 0000 e93f 963c 562a a13c
000000a0: 6fc7 5d3d 9c23 d03d 94d7 0e3d f401 0000
000000b0: f401 0000 0bda 003d f401 0000 b5b7 e23c
000000c0: 9d19 663d f401 0000 9974 343c 29b9 c73c
000000d0: f401 0000 6fdc 9a39 f401 0000 248e 633b
000000e0: 3e58 5f3c 7448 e23b f401 0000 f401 0000
000000f0: 7713 103c 10cd c73c ffe3 a33d e9f3 703b
