models/model.ckpt (torch, 537479 bytes, 9 tensors)

feature.0.weight f4 [256, 4]
000000 d5 21 cf 3d 58 fa 9a be fd 0b 88 3d 2d 8e 93 be
       0.10113875 -0.30269122 0.066429116 -0.2881941
000010 bc c0 c8 3d 1b 0d c6 bd 03 56 99 bf d7 24 ba be
       0.09802386 -0.096704684 -1.1979374 -0.36356232
000020 c6 22 c0 3e 82 b4 65 3d 4e de 9f bf c1 a4 08 be
       0.3752653 0.05608035 -1.2489717 -0.13344099
000030 f6 37 a0 ba 5a 69 74 bb 06 06 a5 3f 55 99 b9 3e
       -0.0012223709 -0.003729424 1.2892463 0.36249796
000040 a7 71 0f 3e e4 e5 12 3e d6 bd 53 3f cf 8d 27 3e
       0.14008199 0.14345509 0.8271154 0.1636269
000050 8b 6a 82 3d ae ae 38 3d ff 16 a5 3e 54 f3 0b 3f
       0.06367978 0.045088463 0.32244107 0.54668164
000060 9d bd a4 3e 29 85 9f be ad 22 9e bf c9 6b fe 3d
       0.32175913 -0.3115628 -1.2354332 0.12422902
000070 dc 9d 55 bd 21 4a f1 3d 97 5a df bd dc b3 ac be
       -0.0521525 0.11781717 -0.109059505 -0.33730972
000080 4c 0b 05 bd a7 a8 94 bd 24 d4 ee 3e 7a 7f a4 3d
       -0.032481477 -0.072587304 0.46646225 0.08032127
000090 26 b9 d3 bc 73 4d e8 3c 52 6d 72 3f 53 5f c4 3e
       -0.025845122 0.028357243 0.9469806 0.38353977
0000a0 27 c3 da 3d cb 2e a0 be 5b 10 9f bf 85 f4 0a bf
       0.106817536 -0.312857 -1.2426866 -0.5427936
0000b0 70 41 15 3e 75 05 83 be 19 82 d4 3e a9 de 73 be
       0.14575744 -0.255901 0.41505507 -0.23815407
0000c0 72 6a 30 be df 04 6e be d7 c8 51 bd 18 97 a4 bd
       -0.17228106 -0.23244046 -0.051216926 -0.08036631
0000d0 74 d8 30 3e 59 36 c8 bc 09 e6 c4 bf 29 4d 87 be
       0.1727007 -0.024439977 -1.5382701 -0.26426056
0000e0 ad 55 51 bb dd 54 6a bc e0 65 10 bf b5 40 bd 3e
       -0.0031941936 -0.01430246 -0.5640545 0.3696343
0000f0 42 69 b7 be fa 59 02 3e a1 ec 3a 3e 1b a8 4b 3e
       -0.35822493 0.12729636 0.1825433 0.19888346
000100 f6 3a b8 3d 3c b2 94 be 19 23 bb 3f bc 86 86 3e
       0.08995621 -0.29042232 1.4620086 0.2627467
000110 4c 13 db 3d 20 e9 05 be 51 a1 c4 3f 3b fd 1e 3e
       0.1069704 -0.13077211 1.536173 0.15526287
000120 7a a1 ac 3c 97 39 0e bc 2d b4 e5 bf ac 75 8d be
       0.021073092 -0.008680723 -1.794561 -0.2762884
000130 94 77 ae bd 20 84 08 bd fe b0 a2 bf 37 82 33 bd
       -0.085189015 -0.03332913 -1.2710264 -0.043825354
000140 66 f6 8d be cb 69 2e 3e 35 1b 7b 3f 8e 68 72 3e
       -0.2772705 0.17032544 0.9808839 0.23672697
000150 b5 f9 91 3c e7 83 8d 3e eb cf 25 3e eb 92 ca 3e
       0.017819265 0.27639696 0.16192596 0.39565215
000160 20 f5 7c 3e a3 bb e3 3d 4d 6e 49 3e 5b 1c 2b 3e
       0.24702883 0.11119773 0.19670983 0.16710036
000170 5f f2 1d 3e 20 1a 1b be 40 af c7 bd 8a d5 e6 3e
       0.15424488 -0.15146685 -0.09750223 0.45084792
000180 94 11 8c 3e c9 0e de be 42 f2 b9 bf 4d 0c a6 be
       0.2735716 -0.43370655 -1.4527056 -0.3243126
000190 5f 7e af 3d b9 b4 a0 bd e9 44 70 3f ff 9a a2 3e
       0.08569025 -0.0784697 0.9385515 0.31758878
0001a0 9c 22 c1 3e 45 f3 ed be 2b fa e5 3e 64 dc 2a 3e
       0.37721717 -0.46474662 0.44917426 0.16685635
0001b0 64 75 cb bd 0d d0 c2 bc 4e 87 1a 3e bb a8 ae bd
       -0.099345 -0.023780847 0.15090677 -0.085282765
0001c0 be 1c 74 3e 95 6f 50 be 81 a9 e3 3e 17 e4 10 be
       0.2383909 -0.20355065 0.4446526 -0.1414951
0001d0 a4 55 ba bd 04 34 9e 3d 25 3a 2d 3e c4 04 9e be
       -0.09098366 0.07724765 0.16916712 -0.3086301
0001e0 28 74 fd 3e 72 38 d1 be ae 57 3e be 14 3f 80 bd
       0.49502683 -0.40863377 -0.18588135 -0.06262031
0001f0 9b 94 62 3e ed f7 32 be 28 2f 89 bf 8f 08 b8 3e
       0.22127001 -0.17477389 -1.0717516 0.3594403
000200 9e 87 1a bd 91 5f 2b 3d a6 8b 06 c0 83 10 7e be
       -0.03772699 0.041839186 -2.1022735 -0.24810986
000210 e0 4a ec bd ce f5 2b 3e 29 e9 e9 3f 97 15 00 3f
       -0.11537719 0.16792986 1.827428 0.50032943
000220 38 b0 46 3e 11 39 0b 3e 03 59 ea 3f 42 b1 47 3e
       0.1940316 0.13595988 1.8308414 0.19501212
000230 41 fd 0d 3b 10 13 26 bc bf e4 a7 bf 71 04 48 be
       0.0021665844 -0.010136381 -1.3116683 -0.19532944
000240 4b 07 5b 3e d3 82 bf 3e 25 b8 8c bf 47 e5 00 bf
       0.21389501 0.37404498 -1.0993696 -0.5034985
000250 56 11 9d be 67 cb 42 3e a5 af 8b bf 05 0b 57 3e
       -0.3067729 0.19022904 -1.0912977 0.21000297
000260 bd 3b 50 3e e7 6f 73 3e bf a6 9a be 85 6e bd 3d
       0.20335288 0.23773156 -0.30205342 0.092495956
000270 00 8a d0 3b d8 1d cc bd c8 58 03 3e 60 e6 b9 3c
       0.006364107 -0.0996663 0.12826836 0.02269286
000280 3d 67 10 bf 1d e8 59 3c c2 aa c1 3e f8 71 0e bd
       -0.5640753 0.013299969 0.3782559 -0.034776658
000290 83 69 31 3e f6 98 e8 3c c2 0d a5 be 82 b3 c0 3e
       0.17325406 0.02839325 -0.3223706 0.37636954
0002a0 f6 b7 f1 bd 5f e1 fb 3d b0 08 fc bf bc 45 ee bd
       -0.11802666 0.122988455 -1.9690151 -0.116343945
0002b0 15 80 57 bd 48 44 bb be b2 57 65 3f 9d 34 cc 3e
       -0.052612383 -0.36575532 0.8958694 0.3988389
0002c0 7a 75 91 be a5 bc 96 3e a7 d5 db be 96 89 c0 3e
       -0.2840994 0.294408 -0.4293644 0.3760497
0002d0 f9 2f af 3e 7f 36 8a be 91 78 0e 3f cb 20 cc 3d
       0.34216288 -0.26994702 0.5565272 0.09967192
0002e0 95 d8 77 3c 3e 8c a0 bc 5a bb e2 bf 81 75 83 be
       0.015127321 -0.019598123 -1.7713425 -0.25675586
0002f0 2b 35 15 3e 34 f6 2e be 57 5c 44 bf 51 10 d5 be
       0.14571063 -0.17086107 -0.767034 -0.4161401
000300 2d 1e 48 be 00 eb 9f 3e 08 5f 5f 3f f2 87 4d 3e
       -0.19542761 0.31233978 0.8725438 0.2007139
000310 20 9f 76 3d 28 99 4a be 1b 81 ae 3e 76 4c 13 be
       0.060210347 -0.19784987 0.34082875 -0.14384636
000320 02 d6 3c bb dd 83 9e 3c 6f 68 a7 3f cd 71 b4 3e
       -0.0028814082 0.019349987 1.3078746 0.35243073
000330 98 46 c8 3d 40 79 a4 3d f6 14 d7 3e f1 e4 b1 3d
       0.0977909 0.08030939 0.4200818 0.08686245
000340 37 1b e7 3d 5c 49 75 3e ff 7a 9e 3f e4 f7 bb 3e
       0.11284488 0.23953766 1.2381285 0.36712563
000350 fe 38 44 3e 21 91 19 3e 9e 79 6e bf 19 ae 4a 3d
       0.19162366 0.14996769 -0.93154323 0.04948244
000360 b0 54 27 bd 53 12 11 3e 6d 4c cd bf 24 7c 84 be
       -0.04085225 0.14167146 -1.6038948 -0.25875962
000370 11 2b 88 3e 05 19 92 3e 06 5c ad 3f 76 8d 22 3e
       0.26595357 0.28534713 1.3543708 0.15874276
000380 78 a8 8e 3d c0 84 ac 3c fe f2 96 be 00 52 8a 3d
       0.069657266 0.021059394 -0.29482263 0.067539215
000390 7a fe d0 3b 73 88 68 3c 05 a0 bf 3f ab 6e 47 3e
       0.006377992 0.014192688 1.4970709 0.1947581
0003a0 f5 da 81 be 97 ad c7 3e 22 f8 c9 bf e2 29 86 3e
       -0.25362363 0.38999626 -1.5778849 0.2620383
0003b0 b8 63 94 bc 20 28 17 bb ce cc ad 3f a7 e3 a0 3e
       -0.018113956 -0.0023064688 1.3578126 0.31423685
0003c0 c8 da dc be 52 85 6a 3e dc dd 86 3f 57 33 b6 3e
       -0.43135667 0.2290242 1.0536456 0.35586044
0003d0 15 81 9a be db 1a 07 3f cb bc cb 3f ef 43 c2 3e
       -0.30176607 0.52775353 1.591699 0.37942454
0003e0 00 73 7c 3e 76 b2 38 be 49 57 b1 be 31 5f 59 3e
       0.24653244 -0.18036827 -0.34636906 0.21227719
0003f0 85 97 b1 3e b3 23 a6 be 76 d5 d2 be c5 a9 94 bd
       0.34685913 -0.3244911 -0.41178483 -0.072589435

feature.0.bias f4 [256]
000000 c8 06 c4 be 9e f6 1d 3f c5 65 cf be f4 e1 b8 be
       -0.38286424 0.6170443 -0.40507331 -0.3610989
000010 60 6d c7 be b9 44 0d bf 0f 6d a8 3e 44 dc 03 3f
       -0.38950634 -0.5518299 0.32895705 0.51507974
000020 cf 78 00 3f c7 19 a8 be f9 7f b5 be 93 dc b3 bd
       0.5018434 -0.32832167 -0.35449198 -0.087823056
000030 f0 82 cb 3e 1c ab c3 be 96 b6 58 be ac 94 03 bf
       0.39748335 -0.38216484 -0.21163401 -0.5139873
000040 9c 1c ed be fd 00 46 be e2 ac d4 be a2 8e 10 3f
       -0.4631089 -0.19336314 -0.4153815 0.5646764
000050 c4 8c c1 3e 4c 74 05 3f be 41 1b bf f5 67 26 bf
       0.37802708 0.5213058 -0.6064719 -0.65002376
000060 f9 af 3c 3e 72 cc eb be f3 bd 1a bf 81 7b bb be
       0.18426503 -0.46054417 -0.6044609 -0.36617664
000070 dc d4 0c 3e 9a 42 d7 be 83 d7 2c bf 29 87 08 bf
       0.13753074 -0.42043 -0.67516345 -0.5333124
000080 2f 1c f1 be 26 b1 01 bf 48 04 27 3e a6 cd e9 3e
       -0.47091815 -0.5066093 0.16310227 0.4566471
000090 d0 a5 d1 be 08 05 d7 3e 5c fe 2d bf 72 98 df be
       -0.40946817 0.41996026 -0.67966247 -0.43670994
0000a0 74 44 3e bf 2f 87 8c 3e 5c a4 a9 be 38 31 27 bf
       -0.743232 0.27446887 -0.3313321 -0.65309477
0000b0 6a 4b cf be 04 b6 28 bf 4d 19 d2 be e0 89 00 bf
       -0.40487224 -0.65902734 -0.41034928 -0.5021038
0000c0 e2 b5 1b be ed 34 84 be d0 e2 0a bf 89 6c eb 3e
       -0.15206102 -0.2582163 -0.5425234 0.45981243
0000d0 43 55 94 be 6c 7e 69 3e b5 f4 04 bf 32 e9 ef be
       -0.289713 0.22802132 -0.51935893 -0.468576
0000e0 e4 2b bd be 05 d9 a8 be 1e 8c d0 3e d4 9c 12 3d
       -0.36947548 -0.32978073 0.407319 0.035794094
0000f0 65 f6 02 3f 9e 1b b1 bc 0a 8a 1c bf ff c1 11 3f
       0.5115722 -0.021619614 -0.6114813 0.5693664
000100 fa 54 3d be 3e 2a 0a bf 69 be 7f be 61 91 81 3d
       -0.18489447 -0.53970706 -0.2497498 0.06326557
000110 4f 9b 08 3f 5d 6b 16 3e c5 39 23 bf 1c 7b e4 be
       0.5336198 0.14689393 -0.63760024 -0.44625175
000120 26 26 43 bf 03 99 04 bf d9 16 03 3f 96 b8 f0 3e
       -0.76230085 -0.5179598 0.5120674 0.47015828
000130 ab 03 59 3e 72 0b 21 bf 5c 76 14 bf c6 db 04 bf
       0.21192805 -0.6290809 -0.579931 -0.5189785
000140 07 67 fd be b1 2c eb be 61 14 14 bf 07 c3 38 3b
       -0.49492666 -0.45932534 -0.57843596 0.0028192417
000150 34 1f fd 3e ea fd b7 3e 90 e1 91 be 57 60 e3 be
       0.4943787 0.3593591 -0.28492403 -0.4440944
000160 ab 71 b4 be f8 e4 18 bf c4 24 00 bf a2 88 c7 be
       -0.35242972 -0.5972438 -0.500561 -0.3897143
000170 04 bf 55 3e 99 b3 e8 3b 5e 2d 15 be 59 5d d1 be
       0.20873648 0.007101488 -0.14568087 -0.4089153
000180 7b 0b c5 be 51 d0 c2 be 11 fe ba be 9b 95 25 bf
       -0.3848532 -0.38049558 -0.36521962 -0.64681405
000190 21 bf 84 be f9 aa 29 3f 2d ad f4 be c5 ab 45 bf
       -0.2592707 0.6627651 -0.47788373 -0.77215225
0001a0 22 3f 25 bf 30 b7 02 3f 5c 5a 06 bf 30 94 99 3e
       -0.6454946 0.5106077 -0.5248163 0.2999587
0001b0 d7 2f 00 bf db f4 a6 be 9d 51 26 be 5a d4 5f 3e
       -0.50073 -0.32608685 -0.1624207 0.2185835
0001c0 b5 1c 97 3e 4a a8 02 bf db 31 17 3e 9d 3c 02 3f
       0.2951409 -0.5103804 0.14765112 0.5087374
0001d0 b9 fa 0d bf cc ab 98 3e 88 04 15 bf 87 7f 47 bf
       -0.554607 0.2981857 -0.5821004 -0.77928966
0001e0 c0 4d 1b 3f 27 87 59 be c6 d5 d3 3e 74 b7 63 3e
       0.6066551 -0.21242963 0.41374034 0.2223795
0001f0 43 13 d7 be a6 8b ea 3e 17 ce 6f 3d ac 73 74 be
       -0.42006883 0.45809668 0.058546152 -0.2387225
000200 4d cd e3 3e 0b 20 0a 3f f2 45 af be 48 14 4b bf
       0.4449257 0.53955144 -0.34233052 -0.7932782
000210 49 17 31 be b6 3a d1 be 4f 8e ca be d8 45 ca be
       -0.17294039 -0.40865105 -0.39561698 -0.39506412
000220 39 29 d6 be 18 a0 66 be 90 b8 10 3e 08 31 24 bf
       -0.41828325 -0.22522008 0.14132905 -0.64137316
000230 a0 38 b2 be 60 70 08 3f e8 cf 05 bf ee a5 0b bf
       -0.34808826 0.5329647 -0.52270365 -0.54550064
000240 01 70 2e bf 1c 2e a5 be 1e 4d d6 3e aa ed e2 be
       -0.68139654 -0.3226174 0.4185571 -0.44321948
000250 86 8d 0d 3f ca dc d6 3e 16 e1 9a be a2 cf 38 3e
       0.5529407 0.41965324 -0.30249852 0.18047956
000260 b6 4d 27 3f 28 af d2 be 6b 07 bb be c9 0b 94 3d
       0.6535295 -0.4114926 -0.36529097 0.0722881
000270 5e 90 03 3f b6 36 1a 3f 3c 82 1b bf 3a e2 8d 3e
       0.5139216 0.6023973 -0.60745597 0.2771166
000280 46 24 b9 3e 3d 63 fe 3e 8c 11 f6 3e a8 ce 15 3f
       0.36160487 0.49685088 0.48060262 0.5851846
000290 6c 4c c1 3e 6e d0 0f bf 31 76 8c be d1 d2 ca bd
       0.37753618 -0.56177413 -0.27433923 -0.09903491
0002a0 8d 42 14 3f f2 1e af 3e e7 a2 29 bd e1 8d cc be
       0.5791405 0.34203297 -0.04141512 -0.39951995
0002b0 6b 8e 3e 3e 3a e1 a5 3e 26 ef f8 3e 6d 4e e8 be
       0.18609016 0.32398397 0.48619956 -0.45372334
0002c0 3a 39 15 3f 0e 0e 6a bd 07 b1 bb be 6a 08 b0 be
       0.58290446 -0.05714231 -0.366585 -0.3438142
0002d0 a2 ee f5 bd 52 ac 2a bf 25 28 7b be 5c c3 9d bd
       -0.12008406 -0.6666919 -0.24527033 -0.077032775
0002e0 4d f7 03 bf 09 9f cc 3e 6e 46 ae be 24 2c 93 3e
       -0.51549226 0.39965084 -0.3403811 0.28744614
0002f0 7e 56 25 be 6e 24 f8 3d 6e 92 0b 3f 50 84 26 bf
       -0.16146275 0.121163234 0.5452031 -0.6504564
000300 ae ec f6 be aa 77 9a be 71 03 ce be 3a 7e 04 bf
       -0.48227447 -0.3016942 -0.40237 -0.51755106
000310 0e d1 77 be a7 ee d8 3e 04 74 05 bf af f3 28 be
       -0.24200842 0.42369577 -0.5213015 -0.16499208
000320 c3 ea 0b 3f 3a 8c 83 3e b1 37 7e 3e ab 69 c3 3e
       0.5465509 0.25692922 0.24825932 0.38166556
000330 5b bf 9f be fd ed ed be 07 9a 35 bf 89 d6 2b 3f
       -0.3120068 -0.46470633 -0.7093815 0.6712423
000340 de 65 ed 3e 19 29 d3 bd 6c 21 26 3f d9 07 0d 3f
       0.4636678 -0.10310573 0.6489475 0.550901
000350 b0 d8 15 3f 43 53 31 bf 75 1f 18 bf e0 8b bd be
       0.58533764 -0.6926767 -0.59423 -0.3702078
000360 f8 2a 3c bf 6d 9d 1c bf a1 67 06 3d f2 6b 51 bf
       -0.73503065 -0.6117771 0.032813672 -0.81805336
000370 e9 04 77 be 5b 56 ea 3e 50 5e 1c be c8 3f 48 3e
       -0.24122967 0.4576901 -0.15270352 0.1955558
000380 16 1b 7e 3e 73 99 14 bf 0f ba 06 bf 34 99 08 3f
       0.2481502 -0.58046645 -0.5262765 0.5335877
000390 69 0b 0f 3f 06 77 e0 3e 90 80 ed be 6e 1b a9 3e
       0.55876786 0.43840808 -0.46387148 0.3302874
0003a0 f7 98 c1 3e 35 6e f4 be 11 95 19 be ef 99 e7 be
       0.37812015 -0.4774033 -0.1499827 -0.4523463
0003b0 e1 a8 ed 3e 80 40 8c be b3 d0 a6 3e 61 03 f0 be
       0.46417907 -0.2739296 0.325811 -0.46877578
0003c0 ae 8c c8 3d fd 63 01 bf 39 16 98 3e ab 2c 9f be
       0.097924575 -0.50543195 0.29704455 -0.31088766
0003d0 41 d2 b7 bd fd 82 14 3f 68 17 b4 3e ed 31 1f be
       -0.089756496 0.5801237 0.35174108 -0.15546389
0003e0 7a 21 5f 3d 50 bc 31 be d3 f6 d6 3e 7c f1 0d be
       0.054475285 -0.17356992 0.41985187 -0.1386165
0003f0 30 c1 17 3f a1 bd b6 be a8 95 b3 be 85 9d 84 be
       0.59279156 -0.3569155 -0.35075116 -0.25901428

advantage.0.weight f4 [256, 256]
000000 62 cd 41 3d 4f 72 99 bd d2 81 0d 3d 83 bb 52 bd
       0.04731501 -0.07492506 0.034547634 -0.051448356
000010 c7 36 5a bc 73 33 25 bd 8e 6f 35 bd d6 5f 14 bd
       -0.013318724 -0.04033227 -0.04429584 -0.03622421
000020 ec 3e 5f bd 21 ee b5 3c db 77 a9 bc 25 e3 b6 bc
       -0.054503366 0.022208275 -0.020687034 -0.022325108
000030 d6 66 de 3c 66 31 3f 3d 5d 36 dc bc 77 08 c9 3b
       0.027148645 0.04667797 -0.026881391 0.0061350423
000040 e6 29 2c bd 1a 35 9e 3c 11 4c 50 3c 3b b9 32 bb
       -0.042032145 0.01931243 0.012713448 -0.002727105
000050 e5 4e 6a bd 31 b4 02 3b a0 6a 71 3b ff 7e 33 3c
       -0.057204146 0.0019943828 0.0036837235 0.010955571
000060 73 f7 37 bd 5e 5f 09 3d a0 c9 89 3b e8 85 fc bc
       -0.04491372 0.033538215 0.004204944 -0.03082557
000070 24 59 80 bc 1f 09 d3 3c e6 e6 5f bd ce 6a 0e bc
       -0.015667506 0.025761185 -0.05466356 -0.008692456
000080 a3 13 01 bc 10 56 f6 3b 33 65 0b bd 4b b5 35 bd
       -0.007878217 0.0075175837 -0.034032058 -0.044362348
000090 78 26 6a 3a 2b 50 8b bc db d5 81 bd 90 50 07 bc
       0.0008932124 -0.017006 -0.06339618 -0.008258954
0000a0 05 71 40 3d a7 07 1f bd 00 9e 38 bb 06 4e 87 bc
       0.046982784 -0.038825657 -0.0028170347 -0.016516697
0000b0 9c ee f6 3b 7a c4 dd bc e8 fb 4d bd 24 1e d2 3b
       0.0075357687 -0.027071226 -0.050289065 0.0064122844
0000c0 a6 2e 4d bd fc 22 1d bd 8c 37 03 bc d6 65 0b bd
       -0.050093316 -0.03836344 -0.008008849 -0.034032665
0000d0 8f 05 26 3d b3 05 17 ba a3 b2 f2 bc 12 b0 26 3c
       0.040532645 -0.0005761042 -0.029626196 0.010173814
0000e0 54 99 92 bc 4f 8c 4c bd 03 ab a1 bd d0 2f 47 3d
       -0.017895378 -0.049938496 -0.07893946 0.048629582
0000f0 43 02 ac bc 2e ce 85 bd 3c cf ca 3c 30 31 cb bc
       -0.020997172 -0.06533466 0.02475702 -0.024803728
000100 32 ab 61 bd 9b 02 57 3c 91 4d 15 3d 62 5b a2 bd
       -0.055094905 0.01312318 0.036450926 -0.07927586
000110 9a 54 57 3d 23 e9 b7 3c c9 86 5b 3d 33 3c 23 bd
       0.052570917 0.022450035 0.053595338 -0.039852332
000120 58 1e 6d 3c dd 3a 50 bc fb bb 53 ba ef 6f 85 bb
       0.014472567 -0.012709347 -0.00080770225 -0.0040721814
000130 15 e2 52 bd c0 bf fa bc ce 59 79 bd bd 2a 33 3c
       -0.05148514 -0.030609012 -0.06087666 0.010935483
000140 d6 ba 03 3d 57 7b 38 3d 58 e4 26 3d 1b 58 72 bc
       0.032160603 0.0450395 0.04074511 -0.014791514
000150 50 73 32 bc 00 3d 55 3d 21 03 f8 bc 6c 41 9b 3a
       -0.01089175 0.052060127 -0.03027493 0.0011845059
000160 4a 90 21 bc 64 9c 00 bd 30 4b c1 3b 1e 1d 7b bd
       -0.009861061 -0.031399146 0.0058988556 -0.061307065
000170 6c 23 20 3d c5 55 64 3c 60 7e ae bc 10 5b ca bb
       0.03909628 0.013936465 -0.021300495 -0.0061754063
000180 a4 c5 25 bd fb c4 f8 bc cb c7 bb 3c 9c 1c dc bc
       -0.040471688 -0.030367365 0.022922417 -0.02686911
000190 4b 66 4b bd e4 bc 93 3a 8c 91 49 3d f0 f2 07 3d
       -0.0496581 0.0011271504 0.04921107 0.033190668
0001a0 03 b8 64 3c 56 fb 39 bd 1a 06 14 3d 89 33 a9 bc
       0.013959887 -0.04540571 0.03613863 -0.020654457
0001b0 49 d6 c8 3c 13 00 58 3c 33 2d 55 bd 4d 08 3a bd
       0.024516242 0.013183611 -0.05204506 -0.045418072
0001c0 26 24 0c 3d cf 1a 25 bd 1e 02 ea bc 77 dc 4d bd
       0.03421416 -0.04030877 -0.028565463 -0.05025908
0001d0 07 fc 9c bc a6 a4 e9 3a 00 2b 23 bd c5 bc d9 bc
       -0.019163145 0.0017825558 -0.03983593 -0.02657927
0001e0 91 bd 7f 3c 89 b8 07 3d f2 79 1a bd a9 b2 36 bd
       0.015609161 0.03313497 -0.037713952 -0.044603977
0001f0 53 c9 32 bd 93 a1 42 bd f2 35 86 bb 86 fe 32 bd
       -0.04364903 -0.04751737 -0.0040957863 -0.043699764
000200 e3 3a 54 bd 8a f6 6e bd 6a d8 13 bd af de 79 3c
       -0.05181397 -0.058340587 -0.03609506 0.015250846
000210 e8 30 8d bd fd 0f 88 3b e8 db 87 3b 2f 9e 0b bd
       -0.06894094 0.0041522966 0.004146088 -0.034086403
000220 a2 5f c0 b9 90 b0 1e 3c 0c b0 15 3b 15 f5 69 3d
       -0.00036692346 0.0096856505 0.0022840528 0.057118494
000230 80 69 15 3b b1 80 4c bc 07 4e 0b bd c8 b5 51 3d
       0.0022798479 -0.012481854 -0.03400996 0.05119875
000240 d4 8c b1 3c a0 37 6e bb 2b 54 80 bc 75 e7 88 bd
       0.021673597 -0.0036349073 -0.015665134 -0.06684772
000250 bb 71 27 bd 4e 4c 54 3c 4e 5a 3c bd 4a 5f a5 bc
       -0.040879946 0.012957646 -0.04598456 -0.020187039
000260 87 02 35 3c ca 82 4e bd 94 67 ce 3b 30 32 66 bd
       0.011047966 -0.0504177 0.0062989686 -0.056200206
000270 90 4e 8d bd 5b 98 92 3c d6 43 15 bd 85 4d 75 3c
       -0.0689975 0.017894914 -0.036441647 0.014972095
000280 9e 7e 5b bd 35 40 0f 3d 3e 14 1e bc 81 7a ba 3c
       -0.05358755 0.034973342 -0.009648381 0.022763493
000290 9c 4b 9d 3c 9e 50 05 3d e3 27 34 3d ed 60 8c bd
       0.019201092 0.032547586 0.04398335 -0.068544246
0002a0 4a 85 3b bd 4b 10 0f bd ef 41 1c bd d4 36 9b 3c
       -0.04578141 -0.034927648 -0.038148817 0.018947043
0002b0 4c d9 b7 bc e6 7a 7d bd 35 a8 6b bd a8 de 80 bc
       -0.022442482 -0.061884783 -0.05753346 -0.01573117
0002c0 c4 d9 10 3d e8 29 2e bc 6d 9e 23 bd 80 34 98 3a
       0.035363927 -0.010630108 -0.03994601 0.0011612326
0002d0 97 83 bf 3c 27 f3 bd bc 2d 08 94 bc 43 59 f7 bc
       0.023378177 -0.023187233 -0.018070305 -0.03019393
0002e0 32 5c 35 bd bc eb c0 bc e4 a7 23 3d a3 50 97 bd
       -0.044277377 -0.023549907 0.039955035 -0.07388427
0002f0 e6 67 97 bd 24 12 3d bc 72 ec 48 3d 81 e7 12 3d
       -0.07392864 -0.01153997 0.049053617 0.03586531
000300 67 b6 f2 bc d0 da 74 3c 45 00 60 3d 74 f0 d7 3c
       -0.029627992 0.014944747 0.054687757 0.026359774
000310 80 a4 37 bd ae de 0b 3d 11 bc 7b bd 58 5a 33 3d
       -0.044834614 0.03414791 -0.06145865 0.04378733
000320 c3 f5 a2 bc c7 ba 4e bc 56 6f 36 bd f1 7c 2e 3d
       -0.019892579 -0.012617773 -0.044539772 0.042599622
000330 9a d9 5e bd 04 30 fb bc dc 03 d1 bc de f8 01 bd
       -0.05440674 -0.030662544 -0.025514536 -0.03173148
000340 93 58 9f bd 5a bd 28 3d 68 11 d0 bc 8a 64 39 bd
       -0.07780566 0.041196205 -0.025398925 -0.045261897
000350 64 71 84 bd b7 d9 35 3a 90 87 c8 bb ae 25 10 3d
       -0.0646694 0.0006937044 -0.006119676 0.035192184
000360 8a 42 4b 3b 26 4e 08 3d d8 ee 0e bd a2 9e 30 bd
       0.0031015002 0.033277653 -0.034895748 -0.043120034
000370 00 ff 8d 3c a5 56 de bc 29 d9 d1 bc b8 42 14 bd
       0.017333508 -0.027140925 -0.025616245 -0.03619644
000380 38 04 05 bd 94 5d 20 3d ac 94 0f bd 0b 55 06 3d
       -0.032474726 0.039151743 -0.035053894 0.032795947
000390 92 65 1c bd 41 98 50 bd 42 00 29 bd 02 50 2b bd
       -0.038182802 -0.05092645 -0.04126001 -0.04182435
0003a0 a7 ee 81 bb 90 a6 d9 bc 90 ca a9 3b 6a 6d 85 bc
       -0.003965217 -0.026568681 0.005181618 -0.016287524
0003b0 ed c2 eb 3c 17 a3 97 3c 40 cc 1f 3d 74 7a 1e 3d
       0.028779471 0.018510384 0.039013147 0.038691
0003c0 d5 f4 9e bd 9b 59 81 bd 13 e6 3f 3c e0 fc b3 bc
       -0.07761542 -0.06315919 0.011712569 -0.021971166
0003d0 1e 57 12 3b 21 e6 ef 3c 85 70 9c 3c 87 67 7c bd
       0.0022329758 0.029284539 0.019096622 -0.06162217
0003e0 06 23 1a bd 67 4c 38 bd a6 38 55 3c e0 5d 41 3d
       -0.037631057 -0.044994738 0.013013994 0.047208667
0003f0 ee c9 0e 3d 62 c0 4b bc b6 34 1a bc ca 96 19 bb
       0.034860544 -0.012436004 -0.009411981 -0.0023435825

advantage.0.bias f4 [256]
000000 5d df 14 3c c7 1d db bd 1a 32 32 bd 5a ae 82 bd
       0.009086457 -0.10699039 -0.04350481 -0.06380911
000010 95 c9 06 bb 90 79 6b 3c 52 b7 ca bc 00 de b7 bd
       -0.002056693 0.0143722445 -0.024745617 -0.0897789
000020 89 e2 f9 bc 4c 8e b3 bd 6d e6 29 3c ed 59 77 be
       -0.030503528 -0.08767375 0.010369879 -0.24155398
000030 2c a1 91 3c 00 0e 1c 3d d0 7e 4f bd b8 16 79 bd
       0.017777048 0.03809929 -0.050658047 -0.060812682
000040 2a 6d 46 bd 7a 60 d7 3e ab 15 15 bb 72 5a f2 bc
       -0.04844395 0.42065793 -0.002274851 -0.029584143
000050 b1 05 29 3d 39 c7 94 3c 75 a5 a0 3c 00 95 dc bc
       0.041265193 0.018161403 0.019610146 -0.026926517
000060 6d f5 b9 3c 39 3f 01 bd fa 2c 70 bc e8 cc 27 be
       0.022700036 -0.031554434 -0.014659161 -0.1638676
000070 5d d4 52 b9 5b e0 4a bd b5 c6 71 be aa 34 57 bd
       -0.00020106272 -0.04953037 -0.23610957 -0.05254046
000080 71 64 de bc 96 89 95 bc 9b 7f 61 bd ef d0 2f ba
       -0.027147504 -0.018254083 -0.055053335 -0.0006706854
000090 f3 18 ad 3c c5 4a eb 3c b0 18 58 3d 4a 53 2c be
       0.02113006 0.028722176 0.05275792 -0.16828647
0000a0 e2 85 11 bd 89 25 ab bd 40 75 ed bb 0d f7 76 bd
       -0.03552807 -0.08356769 -0.0072466433 -0.0602942
0000b0 ad d2 81 bd 25 df fd bd e9 38 32 bd 87 c3 01 bd
       -0.06339011 -0.12396077 -0.043511305 -0.03168061
0000c0 03 7c 90 3c 2d a7 b4 bd f7 4f dc bb 30 03 70 bd
       0.017637258 -0.08820949 -0.0067233997 -0.05859679
0000d0 4b b3 a7 bd 15 e4 14 3c 27 d5 24 bd 42 ba 31 bb
       -0.08188494 0.009087582 -0.04024234 -0.0027119075
0000e0 ff f2 22 bd b8 a4 1f bc 00 5c 41 bd 13 e8 18 be
       -0.03978252 -0.009743862 -0.04720688 -0.1493228
0000f0 08 cb b3 bd 68 b2 d0 3c b7 9f 27 bd 22 97 c5 3c
       -0.087789595 0.025475696 -0.0409238 0.024119917
000100 96 04 0e bd 29 48 9b bd f2 b4 13 be ea 4d 89 bc
       -0.034672342 -0.07582123 -0.14424494 -0.016760785
000110 73 d3 87 3b ea 0d 62 be c6 7f af 3b 3f f4 2c 3d
       0.0041450798 -0.2207562 0.005355808 0.04222512
000120 d0 91 fb bb 67 5e 54 bd 54 37 1b bd fc 5d 1b be
       -0.0076772943 -0.05184784 -0.037894562 -0.15172571
000130 cb ba 9b 3c 1f ca 4a bc 34 fa 8d bd 77 c0 92 bc
       0.019009968 -0.012377291 -0.06932488 -0.01791404
000140 a8 cf 35 bd db 47 90 bd 17 9f 4f bd 94 72 a0 3c
       -0.04438749 -0.07044955 -0.05068883 0.019585885
000150 3d ab 5a bd 53 05 69 be d5 82 8c be d1 f3 ab bc
       -0.05338596 -0.22755937 -0.27443567 -0.020990284
000160 09 48 aa bc aa 8e b0 bd 03 59 fa bc 97 0b 33 3c
       -0.020786302 -0.08620961 -0.030560022 0.010928056
000170 96 d2 70 bd 45 04 9e 3c 02 82 6b bd 52 d3 3f be
       -0.05879458 0.019289145 -0.057497032 -0.18732956
000180 ab 3f 41 3c 3a 66 af bd 13 e3 e1 bd 61 5b c1 3c
       0.011794965 -0.0856442 -0.11029639 0.023603143
000190 18 07 96 3c 07 73 53 3d a2 f8 26 be 65 98 04 bd
       0.01831393 0.05162337 -0.16305783 -0.032371897
0001a0 e6 27 19 bd a7 9d 1e ba 0b a6 aa bc 98 fd 2a 3d
       -0.037391566 -0.0006050714 -0.020831129 0.041745752
0001b0 7f 45 b5 bd 1c 95 75 bd 28 de 1f bd ce 1c 9a bc
       -0.08851146 -0.059956655 -0.039030224 -0.018812563
0001c0 cc 4f ad bc e6 d8 93 bd 32 dc 6d bc ca 36 11 bd
       -0.021156214 -0.072191045 -0.014517831 -0.03545264
0001d0 3d 12 8c bd 67 a7 67 bd 1c 42 de bd 86 c3 60 bc
       -0.06839416 -0.05655613 -0.10852453 -0.013718491
0001e0 f8 06 76 be e2 94 98 bf 0e 13 d8 3c b3 6f c0 bc
       -0.24026096 -1.1920435 0.026376273 -0.023490762
0001f0 59 3c 0c 3d f0 3f c0 bd 4a 81 10 bd fd d6 7e bd
       0.03423724 -0.09387195 -0.03527955 -0.062216748
000200 2b d0 1b 3c 83 67 84 bc 1a 5f 92 bd 29 8f c0 bd
       0.00951008 -0.01616264 -0.071470454 -0.09402306
000210 84 af b1 bd 1d 0d af bc f3 b6 6c bd d3 92 83 bd
       -0.08676055 -0.021368558 -0.05779166 -0.06424489
000220 92 06 ba bc 50 d6 43 bd cf ff 06 be 3a 9b 0b 3d
       -0.022708211 -0.047811806 -0.1318352 0.034083582
000230 f2 77 13 bd c5 6f 98 bc ba 29 2e bc 80 a7 53 3c
       -0.03600306 -0.018607983 -0.010630066 0.012918353
000240 37 ae 04 be 83 4f ba 3b 45 31 a0 bb a6 36 00 bd
       -0.12957083 0.005685748 -0.004888686 -0.031302117
000250 be d7 a6 3c 38 3d 37 bd 0b f8 3e 3c 39 4b de bc
       0.020366546 -0.044736117 0.011655818 -0.027135478
000260 0a 74 eb bc a7 84 10 3c 5f 07 8d bd 62 9d 1a bd
       -0.028741855 0.008820689 -0.068861715 -0.03774775
000270 a7 9d 18 bc f3 d9 89 bd f8 4c 56 bd be 6e 44 be
       -0.009314931 -0.06731024 -0.052319497 -0.1918287
000280 d9 46 60 bc f3 ec 09 be 18 ff 3a be 70 cf 89 bd
       -0.013688766 -0.13469295 -0.18261373 -0.06729019
000290 30 0f 17 3d 61 b0 99 bd 64 ed b8 bd 14 2d a8 bb
       0.03687972 -0.07504345 -0.09029654 -0.005132327
0002a0 10 87 fb 3c cf fc 56 bd 8a 10 41 bb 85 f2 13 3c
       0.030704051 -0.05248719 -0.002945932 0.009029989
0002b0 0c 85 4d bd 92 c6 f5 bb bc 19 86 bd e6 4a d9 bc
       -0.05017571 -0.007500478 -0.06547877 -0.026524972
0002c0 ba d1 92 bd 22 c6 5f bd 07 16 3a be 40 2d 40 3d
       -0.071689084 -0.054632314 -0.18172465 0.046918154
0002d0 78 a2 7f bc 4c 1c 0c bd cc ac 10 3d fd 46 9e bd
       -0.0156027 -0.034206674 0.035321042 -0.07728384
0002e0 ce 61 0e bd 63 30 5e bd 2a 94 08 bd a3 18 8a bd
       -0.034761243 -0.054245364 -0.033344425 -0.0674298
0002f0 37 ca 00 3c a7 8d 30 bc 03 fd a5 bd ba ce 48 3d
       0.007860712 -0.01077596 -0.08104899 0.049025275
000300 4d c5 c4 3c 5d 91 b8 bc af fc 29 be e8 c8 3e 3c
       0.024019862 -0.022530252 -0.16600297 0.0116445795
000310 a2 7f c6 3c e1 55 57 bb b5 a3 8c be 79 65 d9 bc
       0.024230782 -0.0032857584 -0.2746865 -0.026537644
000320 15 0f 9e bd 3e 2c 8c bd 62 c7 5f 3c 38 e8 5f be
       -0.077177204 -0.06844376 0.013658376 -0.21865928
000330 7b fd 79 bd 26 43 9f bb 8f c1 16 3d 82 a4 1c 3e
       -0.061032753 -0.0048602996 0.036805686 0.1529713
000340 dc ad 0e bd 01 ff d3 bd 94 ea 22 bd 5d a7 6b bd
       -0.034833774 -0.103513725 -0.039774492 -0.057532657
000350 cb 48 15 bf 89 b7 88 bd d7 5a 47 bd d0 f0 c6 bc
       -0.583142 -0.066756316 -0.048670616 -0.02428475
000360 e2 0d 49 3c 10 10 41 bc 03 7c 5f 3b f2 87 49 3d
       0.012271376 -0.011783615 0.0034101016 0.049201913
000370 05 1a e7 bc 21 1e 6a bd 45 b9 8a bd a3 8e 63 3b
       -0.02821065 -0.05715764 -0.067736186 0.003472247
000380 12 74 d0 bc 72 80 8a bd 19 fb c7 bc d3 27 84 3c
       -0.025445972 -0.0676278 -0.024411725 0.01613227
000390 10 68 ba 3c 9b 8d 16 bd a8 a6 0b be e8 18 3a bd
       0.022754699 -0.03675614 -0.13637793 -0.04543391
0003a0 7a d2 2c 3d e9 93 73 be 7a b4 a9 3c df 55 c4 bc
       0.042192914 -0.23786892 0.02071594 -0.023966728
0003b0 93 74 14 bc 17 52 16 bd 05 98 5f 3c ec 94 a4 bc
       -0.009060997 -0.03669938 0.013647084 -0.020090543
0003c0 14 32 8a 3c 96 1e 14 ba 62 95 6f bd 1b 5d 29 bd
       0.016869582 -0.00056503096 -0.058492072 -0.041348558
0003d0 b5 87 b9 bc 8b 9f b7 be af b5 0b bd a0 18 d1 3c
       -0.022647718 -0.3586391 -0.034108814 0.025524437
0003e0 98 26 fd bc d4 5c 6b bd c5 b6 ad bd 52 53 62 bd
       -0.030902192 -0.057461575 -0.08482126 -0.05525524
0003f0 be 1c 5c bd 3f 98 94 3c 75 75 2d bc 43 cd f6 be
       -0.05373835 0.018139003 -0.010587086 -0.48203477

advantage.2.weight f4 [2, 256]
000000 20 02 c8 bc be 0a 6f bf ff 9c 19 bc 78 62 19 bb
       -0.024415076 -0.93375766 -0.00937581 -0.002340464
000010 d7 fd ec 3a da b7 73 bc 64 ce 51 3d 13 4d 85 bd
       0.0018081021 -0.014875377 0.05122222 -0.06508841
000020 b3 68 bf bc f6 85 98 3c 6f 82 36 3d 80 1f 10 3f
       -0.023365354 0.018618565 0.044557985 0.56298065
000030 83 de 67 3c 58 31 36 bd 2d d7 e2 3e 29 cd bc 3c
       0.014152172 -0.04448065 0.4430479 0.023047047
000040 e0 25 a2 bf b4 65 6d 3e bf 93 56 bb 06 ec 18 bb
       -1.2667809 0.23183328 -0.0032741872 -0.002333404
000050 c9 a6 7b 3c a9 18 0f 3d 6a 0c ab bc 40 da e0 ba
       0.015359589 0.034935627 -0.020879943 -0.0017154887
000060 1b 8c 33 3d 47 13 ad 3c 72 b5 1b 3d 8e b3 f4 bf
       0.043834787 0.021127356 0.038014837 -1.9117296
000070 ca c4 c7 bb 1c 79 9e bc 60 67 46 3f 21 73 d1 bc
       -0.006096457 -0.019344859 0.7750149 -0.025567593
000080 f8 9d 53 3d a9 b7 16 3d c6 d3 0c 3c 72 79 84 bc
       0.051664323 0.036796246 0.008595413 -0.01617119
000090 2b 2e 20 3c 17 f3 70 3b 45 2a d9 3c 21 74 84 3e
       0.009776632 0.0036765987 0.026509413 0.2586985
0000a0 28 46 e1 bc 2c 1f 0f 3d 3a 77 1a bb 32 85 60 3d
       -0.027499273 0.034941837 -0.00235696 0.054814525
0000b0 bb ae 22 3b fe e7 f4 3e 7e bf 8a 3b d3 d8 95 3c
       0.0024823386 0.47833246 0.0042342534 0.018291866
0000c0 64 02 7c 3c de 22 3b 3c 44 83 46 bd 05 07 36 b7
       0.015381429 0.011421887 -0.04846503 -1.084968e-05
0000d0 86 4f 6b 3c 4b 46 e4 bb d6 96 1e bc c1 e8 c5 3c
       0.014362222 -0.0069663874 -0.009679517 0.024158837
0000e0 91 49 9a bc 5a 23 3d be a2 56 42 bc 32 8b 36 3f
       -0.018833907 -0.18470517 -0.011861475 0.71306145
0000f0 b0 4f 34 bd 39 38 61 3c d8 e0 03 3c 60 a4 a7 3c
       -0.04402131 0.013746315 0.008049212 0.020464122
000100 59 82 03 bc 7a 85 3d 3b 22 78 b0 bc 9b 7f ab 3c
       -0.008026683 0.002891867 -0.021541659 0.02093487
000110 45 fb 03 bd 05 2d 88 3f 01 b7 4b bd e6 2c e0 bc
       -0.03222205 1.0638739 -0.049735073 -0.02736516
000120 7d 22 aa bb ca 7c 2d 3b 11 07 9b 3c 59 39 a9 3f
       -0.0051920996 0.0026472085 0.018924268 1.3220626
000130 0a 63 d1 3c 95 b9 21 3b 98 c1 4c bc 8c 26 37 bd
       0.02555992 0.0024677266 -0.012497328 -0.044714496
000140 0f ca 7c bf 08 25 63 3c 8d 26 f8 bc 8b 2d ee 3c
       -0.98745817 0.013863809 -0.03029182 0.029074451
000150 bd 21 34 3c b8 a0 66 be f9 e9 7d 3c e6 3a 8a 3c
       0.010994372 -0.22522247 0.015497678 0.016873788
000160 a9 1c 0a 3d b7 ca 79 bf 4b 60 2f 3c 50 4e 5c 3d
       0.03371874 -0.97574943 0.01070411 0.053785622
000170 31 1c 23 3d cf 87 bf 3c 8f 71 7a bf a3 22 8a 3f
       0.039821807 0.023380188 -0.97829527 1.079182
000180 33 9c e7 3b 68 ab e9 b8 46 7e 8d bf 4f 84 ae 3b
       0.007068181 -0.00011142233 -1.105416 0.005325831
000190 a8 84 5c 3c e7 23 46 3d af c7 0a be 77 9f e5 bc
       0.013459362 0.048374083 -0.13552736 -0.02803014
0001a0 4a 4a 00 bd 68 62 1e bd 2c 12 22 3d 76 ba 2a 3c
       -0.031320848 -0.038668066 0.03956811 0.010420432
0001b0 17 2a 34 bf 61 e9 0b bb 37 56 e7 3c a6 50 2e 3c
       -0.70376724 -0.0021348821 0.028239353 0.010639345
0001c0 32 14 bd 3c 77 58 1b 3d 3e 4c 79 3c 66 25 97 3c
       0.023080919 0.037926164 0.015215931 0.01845045
0001d0 b7 c5 8e 3a 38 84 98 bf 23 76 a8 bf 46 9d 80 3c
       0.0010892664 -1.191535 -1.3161052 0.015699994
0001e0 a3 0c b6 bf 01 b6 c1 be d0 6c 8a 3c 76 99 62 bc
       -1.4222606 -0.3783417 0.016897589 -0.013830533
0001f0 85 ab dd 3c 54 1d b1 bc 92 9f 24 3c 3b 77 a0 bc
       0.027059326 -0.02162043 0.01004781 -0.019588104
000200 ff d7 c4 3c 03 5e 5f 3c 7a 4f 05 bd 1b 12 25 bc
       0.024028776 0.013633254 -0.032546498 -0.010075117
000210 4d fb db ba 9d 07 c8 bc 2a f7 83 3d 50 7c 30 3d
       -0.0016783267 -0.024417693 0.06443627 0.043087304
000220 2f 6d fe 38 7e d2 22 bc 65 90 7c bf 24 37 ba bb
       0.00012132001 -0.009937881 -0.9865783 -0.005682843
000230 d6 83 43 3d da 1b a6 3c 43 5b 66 bc 11 d0 e4 3c
       0.04773315 0.020276953 -0.014059844 0.027931245
000240 22 49 35 bf b1 67 39 3d f5 f4 ed bc 64 4b 22 3d
       -0.70814717 0.045264903 -0.029047469 0.03962268
000250 51 e9 52 bc f6 48 49 bc 55 6b ca 3b 76 82 96 bf
       -0.01287301 -0.012285462 0.0061773458 -1.1758564
000260 07 c2 fe 3b 22 fd 84 3b 6b b7 f3 bb 53 41 58 3c
       0.0077745947 0.004058496 -0.0074376366 0.013199168
000270 c9 51 8c bc d0 95 de bc 2c 8f 7a bf 73 58 95 bf
       -0.017128842 -0.027171046 -0.9787471 -1.1667618
000280 0b 1d ab bc ac 39 c8 3c d3 27 a0 3f 31 17 ed be
       -0.020887872 0.024441563 1.2512153 -0.46306756
000290 1a 51 ba be 37 b1 db bc 51 da bb be b6 53 16 bd
       -0.3639 -0.026817901 -0.3669 -0.036700927
0002a0 9e fd 8d bc df 42 83 3b a6 ad c7 bc 16 48 a2 3b
       -0.017332848 0.0040057744 -0.024374794 0.004952441
0002b0 5c e9 c9 bb 9a 74 0a bd 3b ff 9b bc 30 1e 90 bc
       -0.006161852 -0.033802606 -0.019042602 -0.01759252
0002c0 74 0f 21 bd 00 9d cf bc 56 ff c7 3e 45 8d 31 3d
       -0.039321378 -0.025343418 0.39061993 0.043347616
0002d0 e5 d0 1f 3d 5a 1c e8 bb 7d 5b 80 bc 44 09 7a bc
       0.039017577 -0.007083458 -0.015668625 -0.015260998
0002e0 e0 47 58 bd ed a1 02 be 3b 1e d2 bf b7 46 15 3c
       -0.05280292 -0.12757082 -1.6415476 0.009111098
0002f0 e5 7d d4 bc 28 33 4c bd bc ef 19 3b 2b b9 da bb
       -0.025938937 -0.049853474 0.002348884 -0.006674906
000300 9d dd ea 3a b0 e7 82 bf 79 53 db bf 67 f9 78 3d
       0.0017918829 -1.0226955 -1.7134849 0.060784724
000310 09 9e 9f 3c 28 6c 8f bc 9e 28 be bf 00 9f cf bc
       0.019484537 -0.017507628 -1.4856145 -0.025344372
000320 77 f1 8c bc 3b 37 b0 bc 78 04 9d bc 13 51 58 3f
       -0.017204983 -0.021510711 -0.01916717 0.8449871
000330 36 de 98 bc 09 14 17 3c f7 e4 5d 3c c2 b7 63 3e
       -0.018660646 0.009221085 0.013543359 0.22238067
000340 d7 f0 d8 3c 6d 0e 99 bf 28 9b a3 bc 0f 56 32 bc
       0.026482029 -1.1957527 -0.019971445 -0.010884776
000350 c9 df 9e be 20 64 59 bc 5c d9 3c bb 30 04 1e bc
       -0.3103011 -0.013268501 -0.002881608 -0.009644553
000360 63 06 90 3b 7e 50 5f bd 84 a9 84 bd 12 46 39 bd
       0.0043952926 -0.054520123 -0.06477645 -0.04523284
000370 35 76 21 bd e1 0d 87 3c 48 b7 f1 3c 88 33 77 3b
       -0.03941937 0.01648611 0.02950634 0.0037719924
000380 a2 ef 04 bc 97 96 31 3d 7c e2 b0 3d 76 fd fd 3c
       -0.008113774 0.043356504 0.086369485 0.031004649
000390 88 8a bf bc b9 9c 7e bd 19 1b 8f 3f 9b 2d 0e bd
       -0.023381487 -0.06216118 1.1180145 -0.03471146
0003a0 33 16 30 bd f3 41 80 3f 78 7b f2 bc 72 9c 1b 3d
       -0.04298992 1.0020126 -0.02959989 0.037990995
0003b0 97 78 54 bc 69 57 7c 3c 8f cb cb bb a9 b6 10 bd
       -0.012968204 0.0154017 -0.0062193344 -0.03533045
0003c0 0f 4e f2 bc 0d 0e 18 3d 83 a7 bb 3d 5b 52 44 3d
       -0.029578237 0.037122775 0.0916281 0.047930103
0003d0 06 bd 01 bd 75 43 12 bf 02 20 54 3c b9 53 26 3c
       -0.031674407 -0.5713418 0.012947084 0.010151797
0003e0 50 0d 36 3b 31 e4 17 3d 6f ff 82 3c 22 e6 41 bd
       0.002777893 0.037082855 0.01599094 -0.047338612
0003f0 3f c1 c5 3b bb cf eb bb d9 43 db bb 15 ae a0 be
       0.0060349996 -0.0071963943 -0.0066914377 -0.31382814

advantage.2.bias f4 [2]
000000 02 b2 05 3e f7 d2 3a be
       0.13056186 -0.18244539

value.0.weight f4 [256, 256]
000000 b4 ad fd 3c 34 1e 99 bd 10 d8 81 3b d0 f6 d1 3c
       0.030966617 -0.07476464 0.0039625242 0.025630385
000010 15 08 3e bd 5a 29 2e 3d 19 82 e4 ba 0a 94 9d bd
       -0.046394426 0.042519905 -0.0017433792 -0.07694252
000020 88 89 42 bd 00 9d db 3b 49 8f 63 bd aa d6 07 bc
       -0.04749444 0.0067020655 -0.05555657 -0.008290926
000030 85 03 0c bd 0a 72 6f 3d c0 01 63 3c b7 84 b0 3c
       -0.034183044 0.058458365 0.013855398 0.021547658
000040 e6 f9 45 bd c6 91 3a bd 15 28 11 3c 47 46 2c 3b
       -0.048334025 -0.045549177 0.008859654 0.0026287006
000050 00 1f 9d bd 2b 74 c9 bc b0 a3 76 bc 48 55 bc bc
       -0.076719284 -0.024591526 -0.015053675 -0.022989884
000060 af 7a 00 3d 28 fe fb 3c a4 44 bf 3c 69 a3 70 bd
       0.031367 0.03076084 0.02334816 -0.05874959
000070 a0 c1 37 bd 1b 80 1a bd 68 34 5b 3c 00 e8 cd 38
       -0.04486239 -0.037719827 0.013379194 9.818375e-05
000080 c5 5e 5c 3c f8 2f e1 bc 5f e9 d6 bc 4f b4 02 bc
       0.013450329 -0.027488694 -0.026234327 -0.007977559
000090 a0 2b 2e bc 23 64 cb bc 50 4f 48 bd fa 6e 49 3d
       -0.010630518 -0.024828022 -0.048903763 0.0491781
0000a0 12 83 a4 bd 13 c8 2c 3c 66 99 b7 bd 00 4e ff 3c
       -0.08032812 0.010545748 -0.08964805 0.031165123
0000b0 a0 b7 5b 3d f6 2f 25 3d 57 94 81 bd 74 05 af bd
       0.053641915 0.040328942 -0.06327122 -0.08545962
0000c0 b4 e7 24 3d 26 2f 59 bd c0 ed 1d 3c 41 13 08 bd
       0.04026003 -0.05302348 0.009639204 -0.033221487
0000d0 d0 8f e5 bb df 32 eb 3c 30 40 7b bd f4 0b d9 3c
       -0.007005669 0.02871078 -0.06134051 0.026494958
0000e0 30 48 6e bd c0 ee ae bc 9e e0 ae 3b 88 1e 67 bd
       -0.058174312 -0.02135408 0.005336835 -0.0564256
0000f0 f0 a9 56 bd 55 e9 58 bc 0c f1 3c 3d 68 25 8e bb
       -0.05240816 -0.013239224 0.046128318 -0.0043379553
000100 7e 75 34 3d ae 10 0c 3d 82 87 6e bd 85 47 dc 3c
       0.04405736 0.034195594 -0.0582347 0.026889572
000110 ea 4b bb bd a4 00 3b 3d 9e 21 6c bd ae d7 7e bd
       -0.09145339 0.045654908 -0.057649247 -0.062217407
000120 2c 07 00 3d d8 95 5a 3c 66 13 04 bd de c3 b8 3c
       0.03125684 0.01334139 -0.032245062 0.022554334
000130 3e 9e 5c bc 6a 45 1a 3d d8 ce f1 3c 90 2f bd 3c
       -0.013465462 0.037663855 0.029517576 0.023093969
000140 50 ed df bc 44 f3 88 bc d4 62 cc 3c 2d 07 89 bd
       -0.02733484 -0.01671756 0.024949469 -0.06690822
000150 1e 5e 01 3a d6 52 66 bd 73 98 1d 3c 7c 86 28 bb
       0.0004934984 -0.056231342 0.009618866 -0.0025714925
000160 40 14 ba bc fc aa 1c 3d de a6 13 bd da d3 bc bd
       -0.022714734 0.038249 -0.03604781 -0.09220095
000170 83 eb c1 bc a2 7e 4d 3d 6f 26 59 b9 3d 7f 72 bd
       -0.023671871 0.050169595 -0.0002070905 -0.059203375
000180 9f be c6 3c e8 48 d8 bc 20 bb 5c bd 00 d1 cf 39
       0.024260817 -0.026401952 -0.053889394 0.00039637834
000190 3d 94 4e bb 19 6e 5c 3c c0 23 84 bc 01 5c 99 bd
       -0.0031521462 0.013453984 -0.016130328 -0.074882515
0001a0 d8 be 73 3d e8 ca be ba ea 7a 36 bd 58 ee 9f bd
       0.059508175 -0.001455632 -0.044550814 -0.07809132
0001b0 68 e7 0b 3c 1f 9a bb bc 00 d0 d9 39 88 5c 40 3d
       0.008539058 -0.02290064 0.00041544437 0.046963245
0001c0 0c 40 89 bd 8c fe c0 3c 36 e8 65 3d f7 d0 05 bd
       -0.06701669 0.023558877 0.056129657 -0.032669988
0001d0 80 c3 5e 3c eb 46 bf bc 48 2c eb 3c e8 cf 40 bd
       0.0135964155 -0.023349246 0.028707638 -0.047073275
0001e0 db f4 a9 bd 5f 39 7e bd 23 a6 ed 3c ac 3c 16 bd
       -0.082986556 -0.062066432 0.029009884 -0.036678955
0001f0 7e bf 3e 3d ee 93 83 bc 6a b2 7b bb a7 09 8a 3c
       0.04656934 -0.01606175 -0.0038405904 0.016850306
000200 26 68 3f bd 4f aa 1d 3c 0b 8a 14 bd ad e6 e3 3c
       -0.046730183 0.009623124 -0.03626446 0.027819956
000210 18 87 d7 3c 78 bd 7f 3c 1d 51 b6 3c d4 59 6c bd
       0.026309535 0.015609138 0.022255475 -0.057702854
000220 70 76 ee bb 28 33 46 3c 8f f4 fe bc ac 5c 7d 3d
       -0.0072773024 0.012097158 -0.031122474 0.061855957
000230 10 66 58 3c 90 e5 bf bd 9b 64 e8 ba 4d ad 6c bd
       0.013207927 -0.093699574 -0.0017730178 -0.05778246
000240 75 5d 24 bd cf 13 e6 bb 3a 8f 05 bd ef 4a 8d bd
       -0.04012819 -0.0070214043 -0.032607295 -0.06899058
000250 60 a5 37 bd 85 fe 78 bd 36 5c 6f bd a9 d2 b0 bc
       -0.04483545 -0.060789604 -0.05843755 -0.021584826
000260 1a f7 d7 bc 98 4a 5f 3d 72 38 4f 3d 6e 32 68 3d
       -0.026362944 0.054514498 0.05059094 0.05668872
000270 73 2f 92 bd 42 5a 99 3b 06 dc c9 bc 19 57 bb bd
       -0.071379565 0.004679949 -0.024641048 -0.09147472
000280 2b 6a 82 bd ea 71 84 bd 51 61 a4 bd a5 d5 b4 bd
       -0.06367906 -0.0646704 -0.08026374 -0.08829812
000290 03 1d 3e 3d c6 5f 04 bd 30 df 73 bd 3b 27 e6 3c
       0.046414386 -0.0323179 -0.05953902 0.028094878
0002a0 0b ca 12 bc 58 97 8c bd 09 e4 85 bd 87 9a 48 bd
       -0.008959304 -0.06864804 -0.06537635 -0.048975494
0002b0 87 81 c4 bd ba 8a 21 bd b8 9a 56 bd fd 5a 6b bd
       -0.09595018 -0.03943894 -0.052393645 -0.05745982
0002c0 49 32 15 bd dc c8 2e bd 08 40 1b 3d c8 14 20 bc
       -0.03642491 -0.042672023 0.03790286 -0.00977058
0002d0 3a 35 62 bc 20 f1 a2 3c 82 8c 41 bd 55 e4 f0 bc
       -0.0138066355 0.019890368 -0.04725314 -0.029405752
0002e0 38 a5 c0 3c 4e 96 af bd 0c d2 87 3c c0 f8 dc bc
       0.023516282 -0.0857359 0.01657965 -0.026974082
0002f0 a9 63 94 ba 7f e6 c4 bd 72 7d 8e bd 57 f0 88 bd
       -0.0011321205 -0.09614276 -0.069575205 -0.06686466
000300 14 98 dd bc a0 06 c8 bc e0 fc 6f bb 18 5b 0d 3d
       -0.027050056 -0.024417222 -0.003661923 0.034510702
000310 a8 31 61 bd fc d4 47 3d ba ec 75 3d 5d 48 c0 bd
       -0.054978997 0.048787102 0.060040213 -0.09388802
000320 5b 1b b4 bc d5 0b b4 ba bc 18 60 bd b9 46 7e bd
       -0.0219857 -0.0013736436 -0.05471109 -0.062079165
000330 48 30 30 bc fa ff 4c 3d 86 d6 67 bd d9 21 11 bd
       -0.010753699 0.050048806 -0.05660107 -0.03543267
000340 97 ee 7e bd 30 59 2b bd af c4 b4 3c 69 1a 3b bc
       -0.062239256 -0.041833103 0.022066442 -0.011419871
000350 be 7d 87 3c 04 41 6d 3c 0c ee 85 3c 72 1f 3e bd
       0.01653945 0.014480833 0.016348861 -0.046416707
000360 30 9c 65 bc 1c 8f d9 bc 85 4c be bd 61 5c 85 bc
       -0.014014289 -0.026557498 -0.09291939 -0.016279401
000370 7c 92 3f bd 36 76 17 3c 86 8e f8 3c 18 0b 04 3d
       -0.046770558 0.009244492 0.030341398 0.032237142
000380 0e 95 c6 bc 0c 53 1b bd 84 cc 13 bd 34 d6 36 bd
       -0.024240997 -0.037920997 -0.036083713 -0.044637874
000390 7f 38 f0 bc 69 55 0d 3c d0 79 36 3d 84 99 88 bd
       -0.029323814 0.00862632 0.044549763 -0.06669906
0003a0 3a b9 82 bd 22 90 5c 3d 3c db c1 3c 18 48 08 3c
       -0.063829854 0.053848393 0.02366411 0.00831797
0003b0 3e 68 a7 3b 1b 80 94 bd ce 58 a1 3c a1 a6 dc bc
       0.005108862 -0.07250997 0.019695666 -0.026934924
0003c0 80 54 64 bc 30 ca c2 bb 7c 12 a8 bd 9a f8 c2 bb
       -0.013936162 -0.005944513 -0.082066506 -0.005950046
0003d0 48 16 38 3d d7 b0 66 bd bd bf 40 bc 60 b9 c6 bc
       0.044943124 -0.05632099 -0.011764464 -0.024258316
0003e0 78 09 4c 3c a2 bf 89 bc fc 5e 12 bd 9e d3 0f 3d
       0.012453429 -0.01681501 -0.035735115 0.035113923
0003f0 b9 ce 64 bc 58 58 20 3d 8c 1f 7d 3d f4 e0 2f 3d
       -0.013965302 0.03914675 0.061797664 0.04293914

value.0.bias f4 [256]
000000 1e f9 2f 3c f3 a0 63 3e e9 4b 80 bb 8e fd 63 3e
       0.0107405465 0.22229366 -0.003915299 0.22264692
000010 05 62 85 bd fa d6 9a 3c d5 f4 7d bd 35 fa 04 3d
       -0.06512836 0.018901337 -0.06200107 0.03246518
000020 a8 df 57 bd 9e 72 75 bd bd 68 37 3d fa 71 19 bd
       -0.05270353 -0.05992376 0.04477762 -0.037462212
000030 52 17 55 3e 3b 2b 8b 3e 3f e8 5c 3d 31 60 b1 ba
       0.20809677 0.2718142 0.053932425 -0.0013532696
000040 a3 12 36 bd 36 db 97 3c 0d 0a 9c 3b 47 db 61 bd
       -0.044451367 0.018537145 0.0047619403 -0.05514076
000050 18 f7 24 bd e6 b1 e2 3c fb bb 97 3c ea 05 68 bd
       -0.04027471 0.02767272 0.018522253 -0.056646265
000060 11 da 33 bd c0 2f 9f 3c 37 84 44 bd 99 50 08 3d
       -0.043909136 0.019431949 -0.047977652 0.03327999
000070 6b 36 1d 3b 08 d2 42 bd 47 ba 19 bc cb dc 89 bd
       0.0023988734 -0.047563583 -0.009382791 -0.06731566
000080 b1 ae 21 bc 5d f9 bc 3d a5 1f f6 3c 31 0b d7 3d
       -0.00986831 0.0922725 0.030044386 0.105001815
000090 18 d3 3d 3e dd c5 b3 3c 37 f3 53 bd 32 18 39 3e
       0.18537557 0.021944935 -0.05174562 0.18075636
0000a0 c3 8a a3 bd ea 4a 04 3e 5a 7e 38 bd f6 20 8d bd
       -0.07985451 0.12919202 -0.045042373 -0.068910524
0000b0 17 6b 44 bd e8 c0 29 bd b0 2d 8d bc 18 b6 71 bd
       -0.04795369 -0.041443735 -0.0172337 -0.05901155
0000c0 d6 70 2e 3e 1e 62 4f bd 2a 86 bf bc 4a 38 f2 3c
       0.17035231 -0.05063068 -0.023379404 0.029567856
0000d0 9e 01 3e bd ac 43 76 3d e4 f0 39 bd 07 5e 70 bd
       -0.04638826 0.06012313 -0.045395747 -0.05868342
0000e0 ae c5 9a ba 93 83 6e bd d4 62 7d bd 65 89 6f 3e
       -0.0011808181 -0.058230948 -0.061861828 0.23392256
0000f0 15 0a 86 bd 7b 7d fc 3d f4 97 80 3e 69 16 66 3e
       -0.06544892 0.12328621 0.2511593 0.22469486
000100 6e 0f ca 3c 4b 8d 6a bc ff 34 bb bb 2f 26 81 3e
       0.02466556 -0.014315913 -0.0057131047 0.25224444
000110 a8 12 cb bc 9c 5b 14 3c 74 58 0e 3d 49 68 95 bd
       -0.02478917 0.0090550445 0.034752324 -0.072952814
000120 a8 bc 33 bd 3c c6 2c 3d 21 d3 8c bd 34 44 87 3e
       -0.04388109 0.04218124 -0.06876207 0.26419222
000130 f1 45 5f 3e f4 ab 93 bd 75 a3 a7 3c 97 5b 63 bd
       0.21804024 -0.07210532 0.020463685 -0.05550727
000140 a5 d7 37 3d d5 5e 88 bd 36 76 5f bd f6 b1 82 3e
       0.04488339 -0.06658713 -0.054556094 0.25526398
000150 0a 74 84 bd 8f 39 8f bd 48 a8 e0 bb fc 6b 85 bd
       -0.06467445 -0.069934 -0.006855998 -0.06514737
000160 eb e0 02 bd 5b 42 db bc 1f 83 f8 bc 88 8d 48 bd
       -0.03195278 -0.02676504 -0.03033596 -0.0489631
000170 de 4b 6b 3e 8f 1d 87 3e 77 87 a6 3e 86 63 7c bc
       0.2297816 0.2638974 0.32525226 -0.015404588
000180 66 6a 91 bd f4 56 b1 bd 3a ce 0f 3c 9f 33 88 bd
       -0.07100372 -0.08659163 0.008777196 -0.06650471
000190 82 51 10 3d 67 0d a2 3e a7 90 99 bd 2e 09 78 bd
       0.035233982 0.3165085 -0.07498293 -0.06055563
0001a0 c6 97 27 bd c7 df c2 bb 52 26 7d 3d de b8 4f bd
       -0.040916227 -0.0059470865 0.061804123 -0.050713412
0001b0 3d 5e d1 bc 41 80 21 bd 6c f3 36 bd 1b ea b0 bc
       -0.025557632 -0.039428953 -0.04466574 -0.021596005
0001c0 52 a2 85 3d 5b 1c bb 3a c2 0b d8 bd 78 9f fd bc
       0.06525101 0.0014275418 -0.105491176 -0.03095983
0001d0 59 ae 1f 3d 61 a0 ba bc 19 a8 c5 3c d4 ec 92 3d
       0.03898463 -0.022781553 0.024128007 0.07174078
0001e0 7e eb 8b bd b8 0e 1c bd 2c a5 98 3e 17 ca 37 3d
       -0.06832026 -0.038099974 0.29813516 0.044870462
0001f0 7a 84 a2 bd d5 22 38 bc 39 ea 32 bc d5 d2 82 3e
       -0.07935424 -0.011238773 -0.010920101 0.25551477
000200 b2 e4 82 bc 88 0a 5c 3d 33 ec 7e 3e 27 3f c9 bc
       -0.015978191 0.05372098 0.2489479 -0.024566246
000210 e3 aa 94 3d e4 a8 1c bc f1 71 89 3e df d0 22 bc
       0.072591566 -0.009561751 0.26844743 -0.009937494
000220 09 fc 60 bc 56 31 95 3e 44 e8 9a 3e f4 4e 48 3d
       -0.013731965 0.29139203 0.3025533 0.04890342
000230 bc 5e 86 3c 2b d6 37 3d 66 47 ac 3e 74 04 75 bc
       0.016402595 0.04488198 0.33648223 -0.014954675
000240 1d 56 2a 3d 13 c4 c5 bc d7 44 1d bd 17 b1 3b 3c
       0.04158603 -0.024141347 -0.03839573 0.011455796
000250 59 29 46 bc 02 80 78 bc df ef 7a bd c0 dc 4e bd
       -0.012094819 -0.015167238 -0.061263915 -0.050503492
000260 86 d2 28 3e 24 1b f4 3c b1 5d 37 bd f3 c5 62 bc
       0.16486558 0.029798098 -0.044767085 -0.01384114
000270 9d a9 8b 3e cf 60 1a 3d 24 05 23 3c 69 02 a5 bc
       0.27277842 0.03768998 0.009949956 -0.02014275
000280 46 fd 95 bc 65 c4 b2 3d 98 3c 9b 3e be b2 8f 3e
       -0.018309247 0.087288655 0.30319667 0.28066057
000290 d4 06 28 bd 26 78 d7 3c 56 4d 03 bd 76 e7 b2 bd
       -0.041022137 0.026302408 -0.032056175 -0.08735554
0002a0 fd cc 8d 3e dc a5 2d bd d5 45 3a 3e 9b a5 82 bd
       0.27695456 -0.042394504 0.18190701 -0.06379243
0002b0 d2 80 73 3e 85 88 64 bd 88 3f 1a bd ae 61 bd bd
       0.2377961 -0.055794258 -0.037658244 -0.092471465
0002c0 33 3d e0 3d 36 8b 05 3c ef ae cc 3c 93 8e a3 bd
       0.10949173 0.008150866 0.024985759 -0.07986178
0002d0 7c 4d f0 bb 3a 34 a1 3d 17 91 99 3e ea 8f 88 3c
       -0.0073334556 0.078712896 0.29993507 0.016670186
0002e0 be 15 70 3d c3 fd 6d 3e 89 c4 04 3b c9 d7 74 3e
       0.058614485 0.23241334 0.0020258746 0.2391044
0002f0 07 cf 64 bd 40 e9 81 bb 0c 76 6e 3e 02 59 4e 3d
       -0.0558615 -0.003964573 0.23287219 0.050377853
000300 e5 c1 26 be 73 d8 75 bc cc 3f 8b 3c 15 b0 75 3e
       -0.16284902 -0.015005219 0.016998194 0.23992951
000310 a0 39 dd bb 1d 94 2b bd d8 95 b5 3c 4a 4c 4a bd
       -0.006751254 -0.0418893 0.022166178 -0.04938916
000320 4e 04 8b bd 8b b8 dc 3c a1 49 75 bd 10 76 9e 3e
       -0.067879304 0.026943466 -0.05988467 0.3094945
000330 db 24 15 3d e7 7f f3 bc 9e a6 7d 3e 58 f1 90 bd
       0.0364121 -0.029724075 0.2477059 -0.07077283
000340 27 04 a2 3d f2 2c 65 bd f6 65 05 be a8 d1 da bc
       0.07910948 -0.055951066 -0.13027176 -0.0267113
000350 df 19 92 bd fb e9 9e 3e 62 cd 56 bd 8a ff 44 bd
       -0.07133841 0.31037888 -0.052441962 -0.048095264
000360 f0 77 eb 3c a4 2d 9d 3c 35 cb 8a 3e de 45 6d bd
       0.028743714 0.019186802 0.2710816 -0.05792796
000370 18 0a a4 bd a6 41 fd 3c 15 78 4d 3e 8c d6 65 bd
       -0.08009738 0.030915093 0.20065339 -0.05611281
000380 1a 66 8e bc 78 09 2a 3d b9 53 9d bd ac 47 22 3e
       -0.01738267 0.041512936 -0.076819845 0.15847653
000390 97 03 be bc 25 f4 e2 3b ec c1 44 bd bc 5b 40 3d
       -0.023195071 0.006926077 -0.0480365 0.046962485
0003a0 6f 13 6a 3e ba 1c 58 bd 51 db 53 bd a1 dd 8c 3e
       0.22858976 -0.05276177 -0.05172283 0.2751284
0003b0 b8 35 76 bd f6 53 16 3d 3e 04 4f 3c 30 e4 22 bc
       -0.060109824 0.036701165 0.012635289 -0.009942099
0003c0 d4 56 82 3e 04 c1 b9 3c 6d a5 a5 bd 6d 6e 6c bd
       0.2545687 0.022675045 -0.08088193 -0.057722498
0003d0 ab ad df 3c 72 ef 86 bd 00 ec 4a 3c e7 c5 31 bd
       0.027304491 -0.06588639 0.012385368 -0.043401625
0003e0 a2 fb 84 3e 07 f9 45 3e 19 c5 3a bd b3 da 86 bc
       0.2597323 0.19333278 -0.045598123 -0.016461706
0003f0 f7 33 c5 3c ac d6 00 3b 92 8c 6d 3e a5 76 a2 bd
       0.02407263 0.0019659204 0.23198155 -0.07932786
